models/12345/model.onnx (onnx, 52233 bytes, 4 tensors)

linear.weight f4 [1, 50]
000000 4a 7a b7 3d 18 04 c2 bd 62 7b 20 be 77 63 f1 bb
       0.08958872 -0.09473437 -0.15672067 -0.0073665935
000010 24 b8 ba bd cb a9 62 3c 23 c0 24 3e ae ea cc bd
       -0.09117153 0.013834427 0.1608892 -0.10005699
000020 54 8d c1 3d df dc 1a 3e 0a e0 1f 3e 38 a2 36 be
       0.09450784 0.15123318 0.15612808 -0.17835319
000030 79 8c 33 be 68 93 06 be 72 12 a1 3c c2 a5 fd 3c
       -0.17534055 -0.13142169 0.019662116 0.030962829
000040 51 87 4b 3d 7d 1f 8b 3c 30 77 cb bd 89 30 10 be
       0.049689595 0.016982788 -0.099348426 -0.14081015
000050 ac 4f 0b 3e 85 87 d0 3d af 15 38 3e 6d 48 07 be
       0.13604611 0.10182098 0.17977022 -0.13211222
000060 ba 24 21 bd 45 46 17 be 7e 96 0b be 7b 56 af bd
       -0.039341666 -0.147729 -0.13631627 -0.08561417
000070 d3 f9 2d 3e 70 0e 14 3e 90 3c ad 3d 91 4a ce 3d
       0.16989832 0.14458632 0.08458817 0.10072816
000080 01 18 fa 3d 83 6b e4 bd f6 d6 c6 3d 70 93 4a 3d
       0.1221161 -0.11153319 0.09708969 0.049457014
000090 55 40 00 be 04 77 8c 3d 13 b5 9e 3c 18 8f 02 3e
       -0.1252454 0.06858638 0.019373452 0.12749898
0000a0 d9 0d d3 bd d3 46 13 be d9 58 0c be a3 2d 37 3d
       -0.103053756 -0.14382486 -0.13705768 0.044721257
0000b0 98 ce f3 3d 75 45 33 3e c5 44 f1 bd 6f 8b c6 3d
       0.11904639 0.17506965 -0.11780695 0.096945636
0000c0 57 df 20 be 1f 56 22 be
       -0.15710197 -0.15853165

onnx::LSTM_113 f4 [1, 200, 9]
000000 29 4f 04 3d af 16 cb 3d 3f a2 4d bd aa a4 e7 3c
       0.032302056 0.09916436 -0.050203558 0.02827676
000010 b3 73 b1 3c 8a 5d 05 be db a1 32 3d 1a aa 24 bd
       0.021661615 -0.13023964 0.04361139 -0.040201284
000020 c2 54 ac bd 84 1b c1 bd 9d 39 c2 3d dc 72 a4 bd
       -0.08414604 -0.09429076 0.09483645 -0.0802972
000030 ba ec 5f 3c 14 d6 49 bd 34 9b 13 3d 9d f1 df bd
       0.01366728 -0.049276426 0.036036685 -0.10934756
000040 ff 63 d5 3d b8 6c 9f 3c 52 18 1c 3d e6 23 1e 3d
       0.10419463 0.01946102 0.03810913 0.038608454
000050 e1 a8 88 3d b0 08 90 3c b6 b6 15 3e 49 e3 12 bd
       0.06672836 0.017582268 0.1462048 -0.035861287
000060 c6 3b 3f 3e 1f ec e2 3d f9 4e a6 bd fc 7e 84 3d
       0.18675146 0.11080193 -0.081205316 0.06469533
000070 e8 2c 52 bd 3b 6d 80 3d 96 ca 03 3e ed f7 aa bb
       -0.051312357 0.06270834 0.12870249 -0.0052175433
000080 ab 8d 9a bd db 10 60 3d ad ca 8d bd 24 14 10 bd
       -0.07546552 0.054703575 -0.06923423 -0.035175458
000090 79 e7 0f be 3c 2b a7 bb 61 81 0a 3e 72 56 4b bc
       -0.14053144 -0.0051015895 0.13525917 -0.012410747
0000a0 74 b6 b7 3d 91 2e 52 bd 50 f8 d3 bd 12 bf ca bd
       0.08970347 -0.05131394 -0.10350096 -0.09899725
0000b0 d0 6a 89 3d 08 43 9c 3d e4 65 c8 bd 73 33 cf 3d
       0.06709826 0.07629973 -0.09785059 0.10117235
0000c0 ea 58 60 3d 85 53 94 bd ab af 9d 3d e3 e2 61 3d
       0.054772295 -0.072424926 0.07699522 0.055148017
0000d0 f5 00 8a 3d a9 1c 94 bd e4 b8 c3 3d 2c 24 a8 bd
       0.06738464 -0.07232029 0.095567495 -0.08210024
0000e0 f3 43 30 bc 75 36 a2 3d e8 a9 86 bc bf 08 dc 3d
       -0.010758388 0.07920543 -0.01643844 0.10743856
0000f0 14 83 41 3d 16 f7 c5 3d d2 6f 0b be 2e 4d dc bd
       0.047244146 0.096662685 -0.13616875 -0.10756908
000100 93 95 2a 3d 84 7e de 3d 0c 32 e0 bd a6 1a 10 3e
       0.04164655 0.10863975 -0.10947046 0.14072666
000110 af 73 00 3e 49 8d 1e 3d 1b 04 00 be d0 65 6f 3d
       0.1254413 0.03870896 -0.12501566 0.058446705
000120 8d ef 21 3d 99 4a fc bd d4 ee a8 3d c7 19 d3 bd
       0.039535094 -0.12318916 0.08248678 -0.10307651
000130 f6 d3 35 be cc e7 47 bd a6 1b f3 3b 7e 93 d9 3d
       -0.17756638 -0.048805043 0.0074190674 0.10623835
000140 8d 70 9d bd 91 dd 27 3d 60 99 35 3d db c9 08 3d
       -0.07687483 0.040982787 0.044335723 0.03339563
000150 2c 15 d5 bd a3 26 a7 bd 0f 01 02 be bf 73 18 3e
       -0.10404429 -0.08161666 -0.12695716 0.14887904
000160 e3 ce f5 3d b4 49 a6 bc 64 65 80 bd eb 51 ac bc
       0.12002351 -0.020298816 -0.06269339 -0.021035155
000170 bb d9 01 3e 63 a5 f5 bd 8d 3d ec 3c cd 00 bc bc
       0.12680714 -0.11994436 0.028837943 -0.0229496
000180 30 f7 45 3e c9 8c 00 3d e4 6f 5b bd 7a 52 c1 3c
       0.19332576 0.031384263 -0.053573504 0.023598898
000190 4a 6c 88 3a ef 47 16 bd 94 11 2f bd 1d 68 4c bd
       0.0010408249 -0.036689695 -0.042741373 -0.049903978
0001a0 43 c6 00 be 12 2f d5 3d 52 6f 1b 3d d7 68 4c bd
       -0.12575631 0.104093686 0.03794796 -0.04990467
0001b0 49 38 b0 b9 78 00 8c bd 76 65 d7 bd e5 4a f3 bd
       -0.00033611272 -0.06836027 -0.10517399 -0.118795194
0001c0 3a e6 1c 3d 52 c5 37 3d 28 b1 ed 3d 03 c5 94 bd
       0.0383055 0.044865914 0.116060555 -0.072641395
0001d0 df 8d 98 bd 84 e5 d0 3d 9f 12 68 bc c1 e7 ce 3d
       -0.07448935 0.10200027 -0.014164596 0.10102797
0001e0 37 0f bf bc ef 97 1b 3d 9d 76 53 3d aa 0f 00 3e
       -0.023322685 0.037986692 0.05162679 0.12505975
0001f0 a8 df bb 3d 72 c4 3f 37 a1 2d c0 3d 26 29 27 3d
       0.091735184 1.1430226e-05 0.09383703 0.040810727
000200 a3 dd ab 3d bc 81 4f bd af fe 77 3d 4e 87 00 be
       0.08391883 -0.050660834 0.06054562 -0.12551615
000210 61 ba ff 3d 75 f7 31 3d 53 5b 04 3e ad 6d 9c bd
       0.12486721 0.043448884 0.12925462 -0.076381065
000220 21 ae dd bd 32 72 0c be 0e 1d 10 3e 60 aa 88 3d
       -0.10824228 -0.13715437 0.14073583 0.066731215
000230 27 f3 1a bd 29 07 22 3d d7 2e e0 3c c0 b0 8f 3d
       -0.037829544 0.03955761 0.027366085 0.07016134
000240 9a a0 cd bc 5f 5e 78 bd 1f 9f 0b be 55 8a c9 3b
       -0.025100995 -0.060636874 -0.13634919 0.0061505237
000250 c4 7c 25 3b b6 91 ff bd 3b 91 fc bc c8 be ea 3c
       0.0025251368 -0.12478964 -0.03083097 0.028655425
000260 04 3b 05 3c 50 18 c5 bd 7c 4a 6d 3c fd bc f1 3d
       0.008131746 -0.09623778 0.0144830905 0.11803625
000270 f7 d8 0d be bb 4a 0a be 83 9e f3 bd 6b 4b 47 3d
       -0.13852297 -0.1350507 -0.11895468 0.04865591
000280 91 ca b0 3d 09 b2 05 3e 0d 04 37 3d d9 13 e7 3c
       0.086323865 0.13056196 0.044681598 0.028207706
000290 6a dd e2 bd d3 6c 5a bd a4 32 9f 3b fd 22 a7 3d
       -0.11077388 -0.05332644 0.0048583318 0.0816097
0002a0 84 79 ce 3d 02 24 85 3d fd b3 88 3d a0 5a 8e bc
       0.10081771 0.065010086 0.06674955 -0.017377198
0002b0 b5 a0 07 3e ed 24 f1 bd 81 f1 e1 bd 0a b6 a4 3d
       0.13244899 -0.11774621 -0.11032391 0.08042534
0002c0 ef 9b 8c 3d 7b bb ae 3d e5 dc 88 3d 95 c7 e0 bd
       0.068656795 0.08531853 0.06682757 -0.10975567
0002d0 14 c5 a5 bd 56 b8 c9 bd 58 79 e7 bd d0 31 c9 3d
       -0.0809423 -0.098496124 -0.11302441 0.09823954
0002e0 3e 68 86 bb 5e 99 de 3d af 7a 59 bd c9 24 25 bb
       -0.004101782 0.10869096 -0.053095516 -0.0025198928
0002f0 f1 9f eb 3d 83 6b d3 bc 9f 39 57 3c 2d a6 7e bd
       0.11505116 -0.025808102 0.0131362965 -0.062170196
000300 13 4a bd 3d 35 f6 c7 3c 15 18 ea bc 21 43 49 bd
       0.09242644 0.024409393 -0.028575936 -0.049136285
000310 52 db aa 3d b3 62 05 3d c4 8d 03 be 6b 2d c9 3d
       0.08342613 0.03256483 -0.12847048 0.09823116
000320 53 21 a0 3d 37 32 0a be be 37 5b bd c6 6b f8 bd
       0.07818856 -0.13495718 -0.053519957 -0.12129931
000330 d8 b6 b4 3d 59 af ca 3d 06 60 b0 bc 1a 06 6c bd
       0.08823937 0.09896726 -0.021530163 -0.057623006
000340 f6 bd 69 3d 39 6b ae 3d 07 ca 9b 3c 92 64 3d 3d
       0.057065926 0.08516545 0.019017233 0.04623849
000350 1d 69 1f 3c c6 f9 bc 3d 79 04 63 bd cf 6e 9a 3d
       0.009729651 0.09227328 -0.055424187 0.07540666
000360 af 7c 56 3d b6 ab 5b bd fa 05 ad bd 45 35 1b 3d
       0.052365 -0.053630553 -0.084484056 0.0378926
000370 1e 3a 40 3d 36 b7 b9 bc b2 96 c0 3c ce 29 ba 3d
       0.046930425 -0.02267037 0.023509357 0.09090005
000380 dc 4e 63 bc 88 8c c9 bd 13 2d 00 3e 9b 36 08 be
       -0.013873782 -0.09841257 0.12517194 -0.1330208
000390 6a 8b ae 3d ab 8b 0b 3e 72 43 b4 3d 8d d9 1d 3e
       0.08522685 0.13627498 0.08801927 0.1541502
0003a0 45 f3 fc 3d b2 4c 0d 3e 8b 70 03 3e 7f 2c ec 3d
       0.123510875 0.13798788 0.128359 0.115319245
0003b0 fd b4 a6 3d c3 2e 3c 3d 3c 74 d0 3d d2 a3 cc bd
       0.081399895 0.045943033 0.1017842 -0.09992184
0003c0 03 d2 53 bd 76 a6 7c 3d 60 42 e7 b9 c6 6c bf bd
       -0.051713955 0.061682187 -0.00044109207 -0.09346919
0003d0 99 48 07 be 87 68 da 3c 9b 57 9e 3d 58 c0 1b bd
       -0.13211288 0.02666117 0.07731553 -0.03802523
0003e0 24 2c 2e 3d 87 b6 94 3d 25 6a 03 be b9 fa cd bd
       0.042522565 0.07261377 -0.1283346 -0.10057587
0003f0 4f 62 ab 3d 46 d1 b0 3d ad 98 94 3d 79 4d 22 bd
       0.0836836 0.08633666 0.07255683 -0.039624665

onnx::LSTM_114 f4 [1, 200, 50]
000000 c3 88 7c bd 3c 60 30 bd 31 d6 c2 3d ac 0a 02 3e
       -0.061653864 -0.043060526 0.0951351 0.12699383
000010 d0 ba 29 3d 00 31 a3 bd 3f 50 52 bb 68 b2 92 3d
       0.041437924 -0.079683304 -0.0032091287 0.071629345
000020 63 1f 8f bd 5e 08 1d bc d4 43 8f 3d df f1 26 bd
       -0.069884084 -0.009584514 0.06995359 -0.04075801
000030 d0 ce 75 bd 58 1d 44 3d 30 5d 19 3d 20 27 49 3d
       -0.060011685 0.047879547 0.037442386 0.049109578
000040 e3 10 f1 ba af 8f 42 bc c9 d8 75 3d 1a c8 ad bd
       -0.0018391873 -0.011875077 0.060021196 -0.08485432
000050 4c d7 8a bd 83 87 d3 3d a8 ec 0e be b5 e8 5c bb
       -0.06779346 0.10328581 -0.13957465 -0.003370804
000060 3c 05 ac 3d 15 5d e3 bd 9b bf e5 bd 0a a1 c6 3d
       0.08399436 -0.11101738 -0.112181865 0.096986845
000070 66 55 a7 3d dc 3d e9 3d 11 60 a4 3b e4 2c ad 3d
       0.08170585 0.11388752 0.005016335 0.08455828
000080 67 23 f6 bd aa 1b a3 3d 58 77 54 bd d4 4f bd 3b
       -0.12018471 0.07964261 -0.051871628 0.0057773385
000090 75 4c 97 bd 7a 03 5e 3d 07 32 d8 bc 6f 0a 95 3d
       -0.0738763 0.054202534 -0.026391042 0.07277381
0000a0 96 3d 06 be 36 30 5f 3b 1d 3b c2 bd dc cf b1 bc
       -0.1310943 0.0034055836 -0.09483931 -0.02170556
0000b0 97 e2 c5 3d a6 5b f2 bd 2a f6 6a bd 45 f1 f1 bd
       0.09662359 -0.11833887 -0.057363667 -0.11813597
0000c0 62 f7 ad 3d 23 b3 8c bd c5 43 22 3c 15 b9 53 3c
       0.0849445 -0.06870105 0.009903853 0.012922545
0000d0 39 44 bb 3d bf d0 b8 bd f2 3c 03 be 92 f5 83 3c
       0.09143872 -0.0902419 -0.12816218 0.016108308
0000e0 25 d0 c5 3d 23 83 9e 3d 14 65 53 bc 69 90 ec bc
       0.09658841 0.07739856 -0.012902517 -0.028877454
0000f0 c4 4c 0e 3e 08 a0 e7 bc 81 e5 ff bd ab 80 cd 3d
       0.13896471 -0.028274551 -0.12494946 0.10034307
000100 50 c1 c5 3d aa f3 88 3c 99 be b2 bd 61 81 93 3c
       0.09656012 0.01671775 -0.0872776 0.018006029
000110 21 ea e6 3d 6e c4 a6 bd f2 ff b7 bd 6b 40 56 3d
       0.11275125 -0.08142935 -0.089843646 0.052307528
000120 13 53 3c 3d 61 a7 bc bd 01 3e 83 3d 31 21 0f be
       0.045977663 -0.092116125 0.06408311 -0.13977505
000130 18 ab 8a 3d d0 d4 0e 3e a6 b4 21 3d e7 e7 5b 3d
       0.06770915 0.13948369 0.03947892 0.053687956
000140 db 63 ec 3d c9 cc 45 3d 46 32 82 3d 63 69 60 bc
       0.115424834 0.048291 0.06357245 -0.013697001
000150 c5 8d 34 bd 1b db ba 3c f5 b5 cf bd 34 91 ef bd
       -0.044080514 0.022809556 -0.101421274 -0.11697617
000160 ea 59 0b 3e bd 95 5b 3d e0 8d 94 bd e4 e0 e0 3c
       0.13608518 0.0536096 -0.07253623 0.027450986
000170 2c ed 8b bd fa c9 b6 3d 64 1d 43 3d f7 e7 03 3e
       -0.06832346 0.08925243 0.04763545 0.12881456
000180 7d 5e ec 3c 52 f9 15 bd 09 72 bd bd fa e3 c8 3d
       0.02885365 -0.036614724 -0.09250266 0.09809108
000190 26 9f 29 3c 09 0e 0d 3d 09 8e f4 3d 39 bd 23 bd
       0.010352885 0.034437213 0.119411536 -0.03997538
0001a0 e3 08 74 bd f3 df 0d 3e b3 ba 03 be cf a1 47 3d
       -0.059578788 0.13854961 -0.12864189 0.048738297
0001b0 2d 1b fd 3d 49 eb f6 bc df 9a 32 3d 24 b3 06 3d
       0.12358699 -0.03014149 0.043604728 0.032885686
0001c0 af ed ae bd 02 53 0c bd a6 3b c7 bd 1c a4 0c bc
       -0.08541428 -0.03425885 -0.09728174 -0.008584049
0001d0 8c 21 bd bd 38 ba 56 bd 00 5d 90 bd f6 f6 09 bd
       -0.09234914 -0.052423686 -0.07048988 -0.033682786
0001e0 42 2b 0b 3e 0b a5 73 bb 48 c1 7f bb dc 3f 17 bd
       0.1359072 -0.003717723 -0.0039025117 -0.036926135
0001f0 b2 c3 4b 3d d7 be 43 bd 72 05 0d 3d 8e 75 dd bd
       0.049747176 -0.04778942 0.03442902 -0.108134374
000200 c1 01 9d bd 74 f1 74 3c 48 e3 98 3c a9 56 92 3d
       -0.0766635 0.014950145 0.018663064 0.07145435
000210 02 a9 0c be 10 e5 09 be d9 84 4d bc 0f bb cc bd
       -0.13736346 -0.13466287 -0.01254388 -0.09996616
000220 76 6c cf bd 76 ab 84 3d c2 75 0f be 69 6c ac 3d
       -0.10128109 0.06478016 -0.14009765 0.08419115
000230 81 6c 63 3d 49 57 15 ba 57 50 11 3d 8a 6a a6 3d
       0.0555234 -0.00056969054 0.03547701 0.081257895
000240 47 5a a4 3d fb 76 a1 3d 3e 30 10 3e 64 f0 b6 bd
       0.080250315 0.07884022 0.14080903 -0.089325696
000250 40 f3 00 be dc 97 ba 3d 9d dc 00 3e 62 0b db 3d
       -0.12592793 0.09110996 0.12584157 0.106955305
000260 f4 ed 13 3d ae 0a e0 bd 9f 1a 97 bd d7 44 ea bd
       0.0361156 -0.10939537 -0.073781244 -0.114389114
000270 7c ff e6 3c 71 45 1f bd 88 d8 fd bd c2 a9 10 be
       0.028197996 -0.038884584 -0.12394816 -0.14127257
000280 d5 40 64 3c 87 cd 6f bd b1 3b bf 3c e7 af a3 bd
       0.013931473 -0.058545616 0.023343893 -0.07992535
000290 b6 f8 54 3d f9 22 da bd 9e 74 fd bd 4f 9b 0c be
       0.051995 -0.10651202 -0.123757586 -0.1373112
0002a0 7d a3 9d bd f5 8a f8 3c c1 01 e9 bd 58 22 93 bd
       -0.076971985 0.030339697 -0.11377288 -0.07184285
0002b0 1e 91 10 3e 12 6b 04 bd 06 04 a0 3d 85 60 a5 3d
       0.14117858 -0.032328673 0.078132674 0.0807505
0002c0 5c 7c 74 bd c4 91 3b 3d 84 42 fe bd 8a 55 da bd
       -0.05968891 0.04579331 -0.124150306 -0.106608465
0002d0 de b2 73 3d fc 1a 98 bd 66 1f c9 3d 1e 97 f0 bd
       0.059496753 -0.07427022 0.09820442 -0.11747573
0002e0 86 48 04 3e 96 85 be bd a9 24 dc bc c9 b9 38 3d
       0.1291829 -0.09302823 -0.02687295 0.045099054
0002f0 22 d6 0b be 09 3a ae bd 77 40 9d 3d 0a 1d 5e bd
       -0.13655904 -0.08507163 0.07678311 -0.054226913
000300 3f bb fd 3d fc ee 21 3d 55 c0 83 3d 09 dc 09 3d
       0.1238923 0.039534554 0.06433169 0.033657108
000310 1e eb b4 3d 50 84 d4 bd 5b 4b c9 bd 24 2b 9b 3b
       0.088339075 -0.10376799 -0.09828826 0.0047353674
000320 6e 44 0e 3e 30 72 90 3d 8d 01 4a 3b 2a 92 ff 3d
       0.13893291 0.070530295 0.0030823678 0.124790505
000330 29 87 13 3d 9e d4 b9 bd 65 4c 43 3d fa 36 46 3d
       0.03601757 -0.09073757 0.047680277 0.048392273
000340 8d 81 59 37 6c ec cc 3d a5 37 9e bc 79 d0 c3 bd
       1.2964371e-05 0.100060314 -0.019313643 -0.095612474
000350 dd 19 a0 3d 67 38 0b 3e 93 e1 9b bd ed d3 04 3e
       0.07817433 0.13595735 -0.07611384 0.12971468
000360 b6 ec 50 3c e8 a5 f6 3d 42 3c b2 bc 1b 65 0e bd
       0.012751749 0.12043363 -0.021757249 -0.03476439
000370 89 33 7c 3d cc 26 34 bd 96 5b e7 bc aa 59 96 3c
       0.061572585 -0.043982312 -0.028241914 0.018353302
000380 03 93 a7 bd 35 89 bf bd 5e 7d 30 3d be 6d 1a 3d
       -0.08182337 -0.09352342 0.04308831 0.037702315
000390 9a 35 f4 bd 50 0e c1 bd 74 81 f0 3c 17 4c d0 bc
       -0.11924286 -0.09426558 0.029358603 -0.025426907
0003a0 c8 cb 0a 3d 29 90 0c 3e 4b 86 0d be 5a 46 69 bc
       0.033885747 0.13726868 -0.1382076 -0.0142379645
0003b0 e7 86 fe bd e5 8a e4 3d 12 79 a5 bc 0d cd 09 be
       -0.12428074 0.111593045 -0.020199332 -0.13457127
0003c0 ad b1 fb 3d e4 c5 7c ba 26 5a ac 3d 97 46 06 be
       0.12289748 -0.0009642525 0.08415632 -0.13112865
0003d0 f3 a0 eb bc 9c b0 95 3d 9d 57 10 3e 45 6f 73 3d
       -0.02876327 0.07309076 0.14095922 0.059432287
0003e0 4a ac b4 bd 03 c5 0a 3d 35 d7 1a 3d 15 ea 8b bd
       -0.08821924 0.03387929 0.037802894 -0.06831757
0003f0 79 33 51 bd 5c 27 ef 3c eb e7 02 3e a0 7b 3e 3d
       -0.05107448 0.029193573 0.12783782 0.046504617

onnx::LSTM_115 f4 [1, 400]
000000 89 60 eb bd 1b 20 e3 3c 4b 45 21 3e 8a 73 e8 bc
       -0.11493022 0.02772527 0.1574909 -0.028375406
000010 5a d6 f8 bd de 00 00 be d6 76 4d 3d 28 20 d5 3d
       -0.12150259 -0.12500331 0.05016216 0.10406524
000020 a9 e9 c4 bd 40 bd 02 3e 2f 38 ba 3d 4a f1 f5 3d
       -0.0961488 0.12767506 0.090927474 0.12008913
000030 69 bd a5 bb 88 77 c3 bc 9e ae 0b bd 54 ef d4 3d
       -0.00505798 -0.023860708 -0.034102075 0.10397211
000040 c1 c1 f3 3c b5 c0 7d 3d 76 fc dc bd ae 48 21 3e
       0.029755475 0.061951358 -0.107903406 0.15750381
000050 ed 3e aa bd f9 8a 08 be f2 8e 5b bd b1 e4 01 3e
       -0.083127834 -0.13334264 -0.05360312 0.12684895
000060 ce a7 1c bb cb 81 f6 bc 44 1d 90 3c e5 ee 5e bc
       -0.002390373 -0.030091187 0.01759208 -0.013606762
000070 7f 01 31 3e 5c 6e 20 bd 30 48 06 3e db 47 22 3e
       0.17285727 -0.039167747 0.13113475 0.15847723
000080 24 47 48 3e 05 88 be 3c 20 82 1e be 45 5a d9 3c
       0.19558388 0.023258219 -0.15479326 0.026532302
000090 b6 dc 02 be b4 de df bd d3 a1 d9 3d 6c 0d a9 3d
       -0.12779507 -0.10931149 0.10626569 0.08254513
0000a0 06 da d3 3d 4d 72 62 bd db c0 1c 3e 7c b0 8a bb
       0.10344319 -0.055284787 0.15307944 -0.0042324644
0000b0 b5 6a 80 bc ca 85 ad bc 32 f6 1e 3c 7e 0e f7 3d
       -0.015675882 -0.02118196 0.009702252 0.12063311
0000c0 73 0b 3b 3e 97 f9 b0 bd f4 dc 2b bd 4e 3b 21 3d
       0.18266086 -0.086413555 -0.041958764 0.039363198
0000d0 e2 82 a2 3d 95 be 07 be f9 c9 e5 bc 08 1c e5 bd
       0.0793512 -0.13256295 -0.02805041 -0.11186987
0000e0 5d 2c f0 3d 4a 3a 9f 3d 88 f6 e6 bd d3 9e b2 ba
       0.117272116 0.0777479 -0.11277491 -0.0013627656
0000f0 e2 46 c9 3d a2 91 2c bb fe 60 07 3e b8 33 53 3b
       0.09827973 -0.002633192 0.13220593 0.0032226872
000100 1d 23 7e 3d f6 23 7b bd 94 91 2a be b9 51 59 3d
       0.062045205 -0.061313592 -0.16657096 0.053056452
000110 4b 4f 59 bd 68 c3 fb 3d a4 cc db bd 81 a1 f6 bd
       -0.053054135 0.1229313 -0.107323915 -0.12042523
000120 5b 0a 53 3d 62 1e 93 3c 51 d0 b6 bc 0d 61 45 3e
       0.051523548 0.017958824 -0.02231613 0.19275303
000130 90 40 44 bd c7 99 03 be 0e 65 85 3d 3c ef b1 bd
       -0.047913134 -0.1285163 0.06513415 -0.086882085
000140 32 50 06 3e 8e 46 01 bd 3d 47 02 3e f3 61 ca 3d
       0.1311653 -0.031561427 0.12722488 0.098819636
000150 7e ee 0e be 78 c2 82 bd 8d 6a c9 3d 39 20 2e be
       -0.13958165 -0.06384748 0.09834776 -0.1700448
000160 87 0f 49 bd 31 60 6a bc cd 94 18 3e 73 b4 24 3c
       -0.049087074 -0.01430516 0.14900513 0.010052788
000170 00 6c b9 3d aa ab 2a bd 6d fd 87 bd 7e 89 aa 3c
       0.090538025 -0.041667618 -0.06640134 0.020817515
000180 2e 3a b3 3c 90 1c 73 bd 74 b5 81 3c 0b b3 2e bd
       0.021878328 -0.05935341 0.015833594 -0.042651217
000190 84 18 fb 3d 2a 7b f2 bd 28 56 f2 bb c9 9b 8a bd
       0.12260535 -0.11839898 -0.0073955245 -0.06767995
0001a0 1c 52 d0 3d 6f 06 a6 3d e8 e8 f6 bd 35 3c bc 3d
       0.10171911 0.08106696 -0.12056142 0.09191171
0001b0 4c 24 00 be 78 19 de bb 7c b5 b0 3d 2e e2 00 3e
       -0.12513846 -0.0067779385 0.086283654 0.1258628
0001c0 e7 a0 77 bc 37 ed c7 3d d2 9b 7a bd d2 7a 94 bd
       -0.015114046 0.09762042 -0.061183758 -0.072499886
0001d0 b2 01 a5 bd 09 37 0b 3e b0 45 16 bd ac 70 29 bd
       -0.08056964 0.13595213 -0.036687553 -0.041367218
0001e0 fb bc 19 3d 48 05 34 bd f5 a5 fb 3b 07 e2 77 bc
       0.03753374 -0.04395035 0.0076796957 -0.015129573
0001f0 e6 71 16 3d e7 b7 8a bd 47 28 81 bd 4b 06 ad 3d
       0.036729716 -0.06773358 -0.063065104 0.08448466
000200 be 13 ff bd 74 ac 05 be b2 8a de 3d 5b 03 ff 3c
       -0.124549374 -0.13054067 0.10866298 0.03112953
000210 e5 d8 9a bd f3 fa 4f bd f1 03 d0 bd 04 fc 96 3c
       -0.075609006 -0.050776433 -0.10157002 0.018430717
000220 48 44 e4 3d fd 77 ae 3d 11 54 a1 3d 3f c7 98 bc
       0.11145836 0.0851898 0.078773625 -0.018649695
000230 a7 25 b7 bd 14 a3 8b 3d aa 9e 83 3d 42 73 0f 3e
       -0.089427285 0.06818214 0.06426747 0.14008811
000240 ba c5 c0 3d 3f 80 c8 3d 48 66 44 bd dd a8 d2 bd
       0.09412713 0.09790086 -0.047949106 -0.10286114
000250 40 51 01 3e ee 05 26 3d 35 57 a6 bd 7a 6b 66 3d
       0.1262865 0.040533 -0.08122102 0.05625484
000260 35 fb 04 be 4c 37 24 3d 89 a8 c1 3d 0e 31 ab 3d
       -0.12986453 0.040091798 0.09455974 0.08358966
000270 5e 45 4f 3a 8d a6 20 be 45 c1 2d bd c5 ed 13 3e
       0.000790676 -0.15688534 -0.042420644 0.1444617
000280 73 ab a8 bc c8 65 a2 bc 7b 3c 34 be c6 71 2c be
       -0.020589566 -0.019823924 -0.17601196 -0.16840276
000290 4c 6c ac 3d ef 7f 85 3d 6e cc a8 bd af c8 dd bd
       0.084190935 0.06518542 -0.08242117 -0.10829293
0002a0 1e 44 fe bd 01 14 ac bd d1 df 0a 3d 6a d1 7b bd
       -0.12415336 -0.08402253 0.033904854 -0.06147901
0002b0 0b cc 17 bd af 1f 86 bd 76 7a f7 bd 9a 0f e7 bd
       -0.037059825 -0.06549012 -0.120839044 -0.11282273
0002c0 6c c9 9b bd 67 eb f9 3c 14 27 10 3e 3b da 00 3e
       -0.076067775 0.030507756 0.14077407 0.12583248
0002d0 c0 e3 9c 37 82 9e 5b 3d 3e 8e 41 3e 07 db c7 3c
       1.8702704e-05 0.05361796 0.18901917 0.024396433
0002e0 f6 1b b3 bd 2c 2e f7 3d ad 40 b0 3c 7e 6d 17 3e
       -0.087455675 0.120693535 0.021515215 0.14787862
0002f0 30 8e 53 3d a4 d7 34 3d 21 24 0f be 90 63 0e be
       0.051649272 0.044150963 -0.13978626 -0.13905168
000300 09 96 71 bd 40 29 e9 3d 47 aa 35 3d 17 c3 28 3c
       -0.058980975 0.11384821 0.044351842 0.010300419
000310 67 03 2f be 90 3e 8f 3d 7b 19 41 be 0b 08 da bd
       -0.17091142 0.06994355 -0.18857376 -0.10646065
000320 48 c9 9d 3c dd f1 57 3d 28 48 0c bc ed 8d 0b be
       0.019261017 0.052720893 -0.008562125 -0.13628359
000330 12 37 c2 bd d0 b5 ed bd ae 2d 8b bd 76 b6 41 3e
       -0.0948316 -0.116069436 -0.06795822 0.1891726
000340 8d 8e a4 3b a8 e1 22 3e 6c 39 f6 3d c0 c5 f0 37
       0.005021876 0.15906394 0.12022671 2.8702314e-05
000350 fa ba cb 3d bc 6e cf 3c 0d 57 9d 3c 0f ce 25 3d
       0.09947772 0.025321357 0.019206548 0.040479716
000360 a1 f6 19 be a2 d8 06 bd 95 ea 59 bd a8 43 34 3e
       -0.15035488 -0.03292144 -0.05320223 0.17603934
000370 09 65 ac 3d e7 fb 19 be 0e 85 41 3e d2 85 57 3d
       0.084177084 -0.150375 0.18898413 0.052617855
000380 96 86 f2 bd ef a4 2e 3d cb 96 e7 3c a2 65 7c 3d
       -0.118420765 0.04263776 0.028270146 0.061620362
000390 6f 89 a1 bd 6c 61 22 3e 05 84 2d 3d a5 73 a0 3d
       -0.078875415 0.15857476 0.04236223 0.078345574
0003a0 9c a1 ae bc 0b 67 9c 3d 4f c8 27 be 67 1d 6e bd
       -0.021317296 0.076368414 -0.16385005 -0.05813351
0003b0 9f 8d a2 bd 5f e1 2c bd 40 75 78 b8 73 3f 1b bd
       -0.07937168 -0.042207118 -5.9237005e-05 -0.037902307
0003c0 e4 83 b0 3d d9 fc 3e 3e 2f 1a bc 3b b2 4c b0 3d
       0.08618906 0.18651141 0.005740426 0.086083785
0003d0 6b c5 2a 3d 84 c7 16 3d bf 83 4b 3d 89 34 95 3d
       0.04169218 0.036811367 0.04968619 0.07285411
0003e0 5a ec 92 bd 8f 15 81 3d 72 90 a9 bd f2 91 5d bd
       -0.07173987 0.0630294 -0.08279504 -0.054094262
0003f0 ae e1 20 3e 18 ec 17 be 0b 8f ad 3d 49 4b ca 3d
       0.1571109 -0.14836156 0.08474549 0.09877641
