models/12345/model.onnx (onnx, 53441 bytes, 5 tensors)

linear.weight f4 [3, 50]
-0.258368 -0.09723051 -0.16903146 0.16388243 -0.047584288 0.2476131 0.027642043 -0.032711282
-0.1622458 0.02306955 0.05047834 -0.07794584 -0.09891103 0.13415308 -0.12226514 0.111959316
0.15123159 0.21979325 -0.1600232 -0.038822398 -0.11304852 0.07024215 0.030765746 -0.09459442
-0.03556876 0.0028123162 0.13083391 0.105478555 0.09809547 0.15569767 -0.009439319 0.0022431707
-0.102391966 -0.14756477 0.038146466 0.07718616 0.14370851 0.28906164 0.20286165 0.13230966
-0.0637795 0.033292737 -0.2032217 -0.12249362 0.03880288 -0.034174267 0.15526564 -0.07798355
-0.15915485 -0.16592816 0.09619108 -0.17994124 -0.19436869 0.14679833 -0.10841929 -0.39172456
0.17956844 0.18061519 0.2576294 0.15120883 -0.2884417 -0.14386207 -0.123926565 -0.087507926
0.20103943 -0.023492236 0.124931015 -0.04374405 0.045841184 0.042789 0.14977346 0.014992116
0.11195403 -0.046623416 0.1336441 0.052513823 0.16624886 -0.22366022 0.0928738 0.050503332
-0.095562726 -0.1337477 -0.143983 -0.04775137 0.04112337 -0.048174843 -0.25880238 -0.24770558
0.16355135 0.027209792 -0.1272696 0.04309407 0.024348395 -0.24892642 -0.18968466 0.14402302
0.036507625 0.051976405 -0.2208766 -0.02644701 0.08495071 -0.14874582 -0.07392677 0.07134937
-0.09646725 -0.11918844 0.124762505 0.121112 0.05963994 0.0708909 -0.059288274 -0.058340043
-0.05083629 0.19359107 0.14665093 0.0010452385 -0.03810318 0.04465846 -0.18569285 -0.19925135
0.17438383 -0.21077125 0.0981496 -0.23990345 -0.035456657 0.16919263 0.059855115 -0.07592867
-0.009499619 -0.049154624 -0.17040095 -0.16938648 -0.15370631 -0.20347932 0.23623197 -0.1839169
-0.1624577 -0.232066 -0.12959304 0.19813016 -0.05350339 0.1682906 0.009887246 -0.1988691
0.02696512 0.20844768 0.12757863 0.21320184 -0.16363187 -0.13524894
00000000: cf48 84be ca20 c7bd 9516 2dbe ccd0 273e
00000010: bee7 42bd 4a8e 7d3e 9171 e23c 44fc 05bd
00000020: c323 26be 5afc bc3c 60c2 4e3d 12a2 9fbd
00000030: de91 cabd 6d5f 093e 2566 fabd ed4a e53d
00000040: 74dc 1a3e 7b11 613e 1fdd 23be 3c04 1fbd
00000050: fc85 e7bd 1edb 8f3d 7208 fc3c b8ba c1bd
00000060: 8cb0 11bd d64e 383b 53f9 053e 2405 d83d
00000070: 47e6 c83d 366f 1f3e 60a7 1abc 2902 133b
00000080: e1b2 d1bd 381b 17be 783f 1c3d c713 9e3d
00000090: 5328 133e e3ff 933e f7ba 4f3e 2f7c 073e
000000a0: d49e 82bd f75d 083d 5919 50be efdd fabd
000000b0: c5ef 1e3d 51fa 0bbd f5fd 1e3e d7b5 9fbd
000000c0: 7df9 22be 12e9 29be d4ff c43d 8442 38be
000000d0: 9608 47be 4d52 163e ef0a debd 1f90 c8be
000000e0: cae0 373e 30f3 383e 00e8 833e 7dd6 1a3e
000000f0: a1ae 93be 9450 13be 36cd fdbd 5b37 b3bd
00000100: 48dd 4d3e ca72 c0bc d5db ff3d f62c 33bd
00000110: f7c3 3b3d 8543 2f3d 375e 193e 7ea1 753c
00000120: 2848 e53d 32f8 3ebd 00da 083e bc18 573d
00000130: 243d 2a3e 2f07 65be 9e34 be3d 95dc 4e3d
00000140: 64b6 c3bd 28f5 08be 4870 13be f196 43bd
00000150: fb70 283d fc52 45bd bf81 84be 88a6 7dbe
00000160: 017a 273e 12e7 de3c f652 02be 6883 303d
00000170: 4976 c73c 91e6 7ebe b23c 42be c57a 133e
00000180: 0589 153d 36e5 543d 7a2d 62be 66a7 d8bc
00000190: a3fa ad3d d350 18be eb66 97bd 9e1f 923d
000001a0: 9f90 c5bd 1219 f4bd 7c83 ff3d 9109 f83d
000001b0: 0249 743d 402f 913d 43d8 72bd f8f5 6ebd
000001c0: b739 50bd bd3c 463e a92b 163e 6200 893a
000001d0: 1412 1cbd caeb 363d 4426 3ebe 8c08 4cbe
000001e0: ad91 323e 6bd4 57be a802 c93d 40a9 75be
000001f0: 003b 11bd d540 2d3e a32a 753d 7e80 9bbd
00000200: 4aa4 1bbc 5c56 49bd 967d 2ebe a673 2dbe
00000210: 3065 1dbe e25c 50be cbe6 713e b654 3cbe
00000220: 505b 26be b6a2 6dbe 0ab4 04be a2e2 4a3e
00000230: 5f26 5bbd 5f54 2c3e 1efe 213c 57a4 4bbe
00000240: f5e5 dc3c 4f73 553e f9a3 023e 9551 5a3e
00000250: 1d8f 27be b37e 0abe

linear.bias f4 [3]
-0.099979065 0.047493745 0.07067102
00000000: d3c1 ccbd cd88 423d f8bb 903d

onnx::LSTM_113 f4 [1, 200, 10]
0.23297882 0.24308686 -0.045953736 0.2570299 0.04892976 0.1071523 0.027849156 0.19274752
0.23436822 -0.049890615 0.13865307 0.0058416557 0.27808025 -0.0065248925 0.13099678 0.050701685
0.15390939 0.052879415 -0.034035902 0.11144937 -0.018059397 -0.05020585 0.08225779 0.056462195
-0.04578682 0.0052196365 0.023551596 -0.034525182 0.06387892 -0.06739643 0.18625732 -0.118295625
0.24699682 0.023485485 0.01990739 0.15818122 0.09299591 0.17543137 0.07666666 0.03763348
0.04182273 -0.05254596 0.21322043 0.10839733 0.12843324 -0.008682239 0.11650533 0.047151785
0.09368614 -0.011985021 0.03308636 0.108069025 0.20332156 0.2702677 0.32057998 0.34195983
0.26355988 0.18561009 0.29879305 0.17422053 0.0032568125 -0.12631422 0.20038809 -0.08330508
0.08841123 0.02237595 0.14470674 -0.071344934 -0.071858354 -0.021324905 0.09020353 0.0089672515
0.3171878 -0.16032499 -0.111136116 -0.07340947 -0.09371192 0.042272177 0.035635635 0.17215633
-0.16098891 -0.10338637 0.2978061 -0.06310934 0.09489155 -0.015159722 0.052210815 -0.16871373
-0.13015842 0.11388862 0.02211029 -0.0793375 0.24262376 0.04887936 -0.063957974 -0.03082156
0.15589759 -0.036332134 -0.038736165 -0.07480018 -0.09561532 0.079623 0.21504892 -0.062310886
0.09318414 0.0033139295 -0.07515929 -0.064890064 -0.11073289 0.044409133 0.13674393 -0.041842323
0.20296812 -0.20192368 -0.06456888 -0.011835658 0.047633767 -0.11536589 -0.051822085 -0.029733738
0.021286855 -0.14082733 0.1448481 -0.18605898 -0.057449397 -0.03765859 -0.0039687906 -0.081221536
0.14900523 0.019922271 0.20684934 0.1667256 -0.09290001 0.2197314 0.0033024417 -0.0078905085
-0.059187196 -0.0639451 0.11710869 0.0126178535 -0.0020426298 -0.14843747 0.27069005 -0.13861033
0.00050205033 0.061590936 0.06524131 0.08110445 0.09579622 -0.047954246 0.12956017 -0.04897575
-0.08486352 -0.09182742 0.1382717 -0.099507675 0.13360178 0.12634532 0.12260247 -0.091431856
0.2551739 -0.058577728 0.033053186 -0.21390772 0.107124105 0.019655354 0.057569064 0.24739006
0.15746486 -0.07343723 0.055987578 0.10478583 0.099567674 0.07674757 0.016682934 0.04804508
0.005099888 0.16886094 0.22789711 -0.048646588 0.12221406 0.15650903 0.100727305 0.03127911
0.12774506 0.1322113 0.12324838 0.05730565 0.04470513 0.07137152 -0.04597221 -0.025268877
0.1982946 0.13575068 -0.0033987828 -0.014426299 -0.0026739337 -0.018440632 0.024000395 0.079560675
-0.20870058 -0.11138769 0.26960164 -0.008369249 -0.021078305 -0.09220942 -0.12802584 -0.18435259
-0.10376678 0.06638627 0.03582869 0.110124625 0.06273462 -0.045815323 -0.002773227 0.16810955
-0.0037659819 -0.07233501 0.022800744 0.0012608309 -0.1650051 0.038833387 -0.058165275 -0.09251558
-0.1866371 0.050610613 0.05169428 -0.011150607 -0.1612929 -0.16757889 -0.09816679 0.12180507
0.22978401 0.12963842 0.12422267 0.09530902 0.034942705 -0.07760451 -0.09121566 -0.06295674
0.009450529 -0.039466616 -0.031099288 -0.047355812 -0.05197256 -0.12547582 -0.13680005 -2.1104926e-05
-0.08894197 0.077549875 -0.060864676 -0.09121924 0.13396269 -0.06041035 -0.013222907 -0.09643701
00000000: 0092 6e3e c3eb 783e fc39 3cbd 6c99 833e
00000010: 926a 483d aa72 db3d ea23 e43c 9b5f 453e
00000020: 39fe 6f3e 1a5a 4cbd 12fb 0d3e 5c6b bf3b
00000030: 8960 8e3e c4ce d5bb 0524 063e 92ac 4f3d
00000040: 6c9a 1d3e 1698 583d 3b69 0bbd 913f e43d
00000050: 4df1 93bc a6a4 4dbd c676 a83d e744 673d
00000060: f68a 3bbd 7c09 ab3b 47ef c03c 476a 0dbd
00000070: f4d2 823d 2407 8abd 3dba 3e3e fa44 f2bd
00000080: bcec 7c3e a264 c03c d314 a33c 42fa 213e
00000090: a474 be3d 48a4 333e 6903 9d3d 9025 1a3d
000000a0: 504e 2b3d 6f3a 57bd 7556 5a3e 6bff dd3d
000000b0: 0184 033e f33f 0ebc 599a ee3d 3b22 413d
000000c0: 85de bf3d d25c 44bc 9085 073d 4b53 dd3d
000000d0: 8733 503e 8760 8a3e 0f23 a43e 5c15 af3e
000000e0: 52f1 863e 9210 3e3e 67fb 983e de66 323e
000000f0: 3f70 553b 8458 01be 8932 4d3e db9b aabd
00000100: f210 b53d c54d b73c 012e 143e 4b1d 92bd
00000110: 792a 93bd 91b1 aebc a1bc b83d 61eb 123c
00000120: 7066 a23e 3c2c 24be 559b e3bd b457 96bd
00000130: 09ec bfbd 9725 2d3d acf6 113d c049 303e
00000140: 47da 24be 3cbc d3bd 0b7a 983e 783f 81bd
00000150: 8056 c23d 7c60 78bc 02db 553d 4bc3 2cbe
00000160: 4048 05be 703e e93d a420 b53c b37b a2bd
00000170: 5d72 783e b935 483d 66fc 82bd 7f7d fcbc
00000180: 9ea3 1f3e 01d1 14bd d0a9 1ebd d630 99bd
00000190: f7d1 c3bd 6211 a33d c935 5c3e b339 7fbd
000001a0: 54d7 be3d 832e 593b 1ded 99bd 15e5 84bd
000001b0: edc7 e2bd 5ae6 353d 9a06 0c3e db62 2bbd
000001c0: e0d6 4f3e 15c5 4ebe b03c 84bd 59ea 41bc
000001d0: a01b 433d f444 ecbd 6543 54bd 2b94 f3bc
000001e0: c561 ae3c 0a35 10be 0f53 143e 3f86 3ebe
000001f0: 0f50 6bbd e53f 1abd a10c 82bb 7a57 a6bd
00000200: d494 183e 0834 a33c 50d0 533e 1eba 2a3e
00000210: 5c42 bebd 4501 613e c76d 583b 3147 01bc
00000220: 466e 72bd a6f5 82bd aed6 ef3d 1dbb 4e3c
00000230: a4dd 05bb feff 17be e397 8a3e deef 0dbe
00000240: 079c 033a c746 7c3d 3c9d 853d 171a a63d
00000250: cf30 c43d ac6b 44bd 6cab 043e cc9a 48bd
00000260: edcc adbd 0410 bcbd 1997 0d3e aeca cbbd
00000270: e8ce 083e ab60 013e 0117 fb3d a040 bbbd
00000280: 27a6 823e 33ef 6fbd c762 073d a00a 5bbe
00000290: e263 db3d 4404 a13c 8acd 6b3d d253 7d3e
000002a0: 783e 213e 4266 96bd 3b53 653d f499 d63d
000002b0: 23ea cb3d d42d 9d3d a6aa 883c ebca 443d
000002c0: f61c a73b e2e9 2c3e dc5d 693e a541 47bd
000002d0: 5d4b fa3d e743 203e 1e4a ce3d 861e 003d
000002e0: 9acf 023e 6662 073e a669 fc3d 54b9 6a3d
000002f0: ba1c 373d 3b2b 923d 5b4d 3cbd ad00 cfbc
00000300: bd0d 4b3e 3a02 0b3e 1dbe 5ebb 495c 6cbc
00000310: 2a3d 2fbb cf10 97bc 7a9c c43c b5f0 a23d
00000320: 9bb5 55be 3b1f e4bd 3a09 8a3e 2d1f 09bc
00000330: 69ac acbc 4bd8 bcbd 3519 03be edc6 3cbe
00000340: ad83 d4bd 86f5 873d 1bc1 123d 0589 e13d
00000350: 027b 803d d9a8 3bbd 07bf 35bb e924 2c3e
00000360: b1ce 76bb 6124 94bd a0c8 ba3c 7742 a53a
00000370: 19f7 28be c20f 1f3d b63e 6ebd cf78 bdbd
00000380: cc1d 3fbe 134d 4f3d 62bd 533d 09b1 36bc
00000390: f729 25be cd99 2bbe ac0b c9bd f074 f93d
000003a0: 804c 6b3e efbf 043e 7568 fe3d 6031 c33d
000003b0: 1520 0f3d 1def 9ebd 47cf babd 77ef 80bd
000003c0: 64d6 1a3c bfa7 21bd efc3 febc 2bf8 41bd
000003d0: 2ee1 54bd bc7c 00be 5015 0cbe 7c0a b1b7
000003e0: 3527 b6bd 78d2 9e3d 3d4d 79bd 27d1 babd
000003f0: 842d 093e d870 77bd e4a4 58bc c480 c5bd

onnx::LSTM_114 f4 [1, 200, 50]
-0.029972715 -0.08583319 0.06410416 -0.05890985 -0.0073160357 -0.099431194 -0.014263725 0.020093966
-0.005754832 -0.052841764 0.04201397 -0.036641933 -0.078403845 -0.10428872 -0.029957222 -0.13359772
0.117382556 -0.06756091 -0.05860759 0.013072858 0.03666112 -0.01333496 0.09701829 -0.08244153
0.0506827 -0.0003189505 -0.11504219 -0.05477177 0.03598992 0.027017396 0.10283248 0.0946099
-0.07713444 -0.06039109 -0.02998718 -0.10131717 -0.038182333 -0.115726925 0.0537885 0.10006401
0.011197238 -0.101240814 -0.10709953 -0.055055216 0.041132882 0.003449551 0.025713507 0.13328698
0.065682024 0.030408785 -0.028612638 0.066899225 0.05173767 -0.12729369 -0.08353887 0.0047469153
0.053661253 0.0688019 -0.084185116 -0.14030616 -0.007366865 -0.016166909 0.041037645 -0.03889178
0.10811985 0.009436225 0.10327251 -0.09847372 0.056573633 0.01685122 -0.070731655 0.07010933
-0.13916136 0.11433451 0.011396879 0.013654602 0.06539969 0.011739719 0.06062049 0.08997427
-0.1103735 0.09355877 -0.021176264 -0.032887407 0.028465511 0.11061296 -0.07687881 -0.09530826
0.087767124 -0.06642108 0.045530617 -0.020835059 0.038926646 0.10792077 -0.0716722 -0.068626635
0.069384255 0.0077431686 -0.015564579 -0.12422285 0.11982043 -0.005355752 -0.026048034 -0.058052044
-0.02790784 0.06873563 -0.0032503314 0.12094477 -0.008164924 -0.020287994 0.07982551 -0.0036593582
-0.028226707 0.04726678 0.11152927 0.03529163 0.098474264 0.091646455 0.03999365 0.04917059
0.045634434 0.014669177 0.120312296 0.13055179 0.050344396 -0.0070623793 0.12679756 -0.11007115
0.10391414 0.074928656 0.09081176 -0.0108662 -0.10551418 0.10088135 -0.061837286 0.037209734
0.080121584 -0.13216189 0.0093852775 -0.0502366 0.100374565 -0.09004319 0.08586677 0.088186115
0.078024276 0.13576625 0.021418422 -0.12818165 0.10095575 0.01294667 0.0028065082 -0.13471647
-0.031785335 -0.06864137 0.13850965 0.100696094 0.10549867 0.09685053 -0.08766341 -0.060736176
-0.05534529 -0.05669331 0.11008693 0.04805029 0.11332858 -0.006615538 -0.12606685 -0.04102962
0.09939018 0.08609811 0.043780025 -0.041482802 -0.13199861 -0.07598947 0.07373433 -0.057043403
0.06764729 0.03861385 -0.054318152 0.086136684 -0.04544329 -0.004698396 -0.05386924 -0.13414828
0.022802524 0.04086643 -0.07120302 0.086754486 -0.12686281 -0.1363269 -0.08734876 -0.048875917
-0.01570599 -0.027329367 0.06454308 -0.124114975 0.02082395 0.002449086 0.037353657 0.14058416
0.08703756 -0.07830566 -0.1158881 -0.034238245 -0.07094077 0.049399212 0.0012964034 0.113748536
0.055551182 -0.026003191 0.0048606447 0.033868432 -0.017548583 0.114117794 -0.110577404 0.068929605
-0.09014819 -0.123896636 -0.02903333 0.06891533 0.09992295 0.035488624 -0.012222907 -0.007927991
-0.05732958 -0.012690787 -0.009771359 0.120344296 0.082766026 -0.11316876 0.00058501516 -0.086984016
-0.022449352 -0.11239719 0.036764055 -0.101975836 0.13961414 0.10680177 -0.09734865 -0.13314311
0.005517933 -0.03947801 0.041516602 -0.09573011 0.057889592 -0.12215261 -0.07463796 -0.07434546
0.06843258 -0.003702584 -0.13590997 -0.08076857 -0.06544654 -0.13121493 0.018108563 0.050393794
00000000: 5789 f5bc 50c9 afbd 0b49 833d 744b 71bd
00000010: 5bbb efbb 95a2 cbbd 66b2 69bc 1a9c a43c
00000020: 0893 bcbb 9b70 58bd d716 2c3d da15 16bd
00000030: 3292 a0bd 5395 d5bd d968 f5bc d7cd 08be
00000040: 4466 f03d 605d 8abd 830e 70bd 8a2f 563c
00000050: f829 163d e07a 5abc 86b1 c63d 1bd7 a8bd
00000060: aa98 4f3d d038 a7b9 3d9b ebbd 5d58 60bd
00000070: 2b6a 133d 9653 dd3c d699 d23d d6c2 c13d
00000080: a9f8 9dbd a65c 77bd ada7 f5bc 607f cfbd
00000090: 1465 1cbd 3d02 edbd 5551 5c3d 5cee cc3d
000000a0: 9f74 373c 5857 cfbd 0057 dbbd 9481 61bd
000000b0: f47a 283d dd11 623b 22a5 d23c 627c 083e
000000c0: 4c84 863d d81b f93c 0d65 eabc 7602 893d
000000d0: e1ea 533d 4759 02be 6d16 abbd 038c 9b3b
000000e0: e7cb 5b3d 03e8 8c3d 3f69 acbd 6bac 0fbe
000000f0: be65 f1bb 7770 84bc 1717 283d fd4c 1fbd
00000100: f16d dd3d 659a 1a3c 8a80 d33d 97ac c9bd
00000110: c1b9 673d 920b 8a3c c2db 90bd 7b95 8f3d
00000120: 5180 0ebe 3628 ea3d fab9 3a3c 8db7 5f3c
00000130: 46f0 853d f357 403c 314d 783d 6e44 b83d
00000140: 800b e2bd be9b bf3d d879 adbc f2b4 06bd
00000150: 8130 e93c 0c89 e23d a372 9dbd fa30 c3bd
00000160: 40bf b33d c607 88bd 507e 3a3d 49ae aabc
00000170: 8c71 1f3d 9105 dd3d e0c8 92bd 1f8c 8cbd
00000180: 5519 8e3d 68ba fd3b 9302 7fbc 8d68 febd
00000190: 6a64 f53d 4e7f afbb b062 d5bc fbc7 6dbd
000001a0: fc9e e4bc 44c5 8c3d 8303 55bb e4b1 f73d
000001b0: 2cc6 05bc 0233 a6bc 8f7b a33d d8d1 6fbb
000001c0: b23b e7bc d09a 413d 7569 e43d f58d 103d
000001d0: e0ac c93d 23b1 bb3d 62d0 233d 1a67 493d
000001e0: 2ceb 3a3d fd56 703c 4b66 f63d 5eaf 053e
000001f0: ed35 4e3d 886b e7bb 38d7 013e fc6c e1bd
00000200: f0d0 d43d 3274 993d 84fb b93d 2508 32bc
00000210: d217 d8bd e29a ce3d 1849 7dbd 3c69 183d
00000220: c916 a43d 7255 07be b5c4 193c e5c4 4dbd
00000230: 2e91 cd3d 9068 b8bd ebda af3d ec9a b43d
00000240: 31cb 9f3d 4f06 0b3e b075 af3c 0d42 03be
00000250: e3c1 ce3d 451e 543c 65ed 373b 1df3 09be
00000260: 5731 02bd d993 8cbd 79d5 0d3e c139 ce3d
00000270: b00f d83d 9259 c63d e088 b3bd 7fc6 78bd
00000280: beb1 62bd 3f37 68bd 4275 e13d 62d0 443d
00000290: d118 e83d 28c7 d8bb ab17 01be ad0e 28bd
000002a0: 148d cb3d 3554 b03d af52 333d dfe9 29bd
000002b0: a52a 07be 5ea0 9bbd 0602 973d 58a6 69bd
000002c0: aa8a 8a3d 8e29 1e3d b67c 5ebd 6e68 b03d
000002d0: be22 3abd 01f5 99bb fea5 5cbd 2b5e 09be
000002e0: 5ccc ba3c 8f63 273d e4d2 91bd 56ac b13d
000002f0: 53e8 01be 4799 0bbe e8e3 b2bd 1d32 48bd
00000300: d9a9 80bc d6e1 dfbc 2a2f 843d fe2f febd
00000310: fd96 aa3c d880 203b 2600 193d 4bf5 0f3e
00000320: c040 b23d b85e a0bd bd56 edbd 673d 0cbd
00000330: 6549 91bd d456 4a3d 14ec a93a fef4 e83d
00000340: a389 633d a504 d5bc 0b46 9f3b a0b9 0a3d
00000350: 0cc2 8fbc 97b6 e93d 6876 e2bd f72a 8d3d
00000360: 9d9f b8bd 85bd fdbd 4ed7 edbc 7b23 8d3d
00000370: 67a4 cc3d 855c 113d 9642 48bc 68e4 01bc
00000380: 6cd2 6abd 05ed 4fbc 0d18 20bc 1277 f63d
00000390: 3c81 a93d 06c5 e7bd b45b 193a ad24 b2bd
000003a0: b4e7 b7bc 7f30 e6bd e895 163d b5d8 d0bd
000003b0: 02f7 0e3e e3ba da3d bb5e c7bd ab56 08be
000003c0: c7cf b43b b2b3 21bd 500d 2a3d 260e c4bd
000003d0: a31d 6d3d 262b fabd c9db 98bd 6f42 98bd
000003e0: 6126 8c3d 0da7 72bb fc2b 0bbe fe69 a5bd
000003f0: d608 86bd 355d 06be 6958 943c b969 4e3d

onnx::LSTM_115 f4 [1, 400]
0.19303344 0.060406443 -0.024764813 -0.0025694307 0.047291037 0.31599256 0.21512538 0.108094186
0.06562764 0.058596943 0.15144195 0.11001478 0.10217082 0.00583502 0.14308934 0.030981977
-0.059883583 -0.019306399 0.17818545 -0.06408691 0.1141663 0.15479577 -0.06515009 0.061211813
0.040392384 0.017333219 0.05122199 0.20315678 -0.023562608 -0.093536064 0.2156859 0.14431173
0.19479494 0.047649372 -0.03158401 0.07668136 0.42917815 0.25694305 0.3471354 0.16584085
-0.054724194 -0.030820321 -0.00334869 0.00830689 -0.04360062 0.11991492 0.05784159 0.21225853
0.026423428 0.1194439 -0.06762709 0.11834376 0.14303763 0.12765239 0.0326603 0.25141206
0.015655832 0.22839354 0.09495015 0.04162179 0.21907398 -0.019302744 -0.046904627 -0.0047719707
0.12697017 -0.118876845 -0.15370886 -0.005770744 0.041127518 0.021410394 -0.02764192 0.1733059
-0.043339152 0.014802585 0.07839591 0.15956473 0.0831383 0.23733461 -0.039746854 0.086240366
0.025569417 -0.033308886 0.12318892 0.017262675 0.17157988 -0.015940001 0.292896 0.35164237
0.23152512 0.1820105 0.21440996 0.063957475 -0.019667571 0.08071704 -0.034298427 0.090446316
0.15358609 0.22675802 0.1988599 0.19253044 -0.070698425 -0.0725603 0.124482475 0.017179916
0.14115608 -0.1175811 -0.051142927 -0.120041415 0.11268434 0.06868522 0.006587249 0.13359559
-0.09808183 -0.10345981 0.13066605 -0.036986493 0.09185456 0.06787922 0.038373157 -0.088814475
-0.04674556 0.122901276 0.055728927 -0.03778393 0.045700792 -0.035131708 -0.010957102 0.024654508
0.09856951 0.13528429 0.12876883 -0.029892502 0.011394805 -0.13604723 -0.013939902 0.008203901
-0.09044271 0.12661739 -0.05966293 -0.13110603 -0.06498535 -0.024604792 -0.11768835 0.08999516
0.020308983 -0.08314407 0.012449438 -0.122228496 0.04461524 -0.0047082077 0.049481615 -0.068921335
-0.13466285 0.16762267 -0.19809762 -0.020708276 0.21474034 0.13497329 -0.018374808 0.25915962
-0.12878184 -0.13717762 0.00017839564 0.0032459407 0.0949699 -0.007426447 0.055570457 -0.07454884
0.058441594 -0.025999222 0.058177624 -0.099176235 0.02575043 -0.16397962 0.06986762 0.21362622
0.1260068 0.05207758 -0.087369725 -0.07133156 -0.1811976 -0.0039336937 -0.08282091 -0.20068334
0.11135528 -0.05395388 -0.059744123 -0.08938073 -0.12518285 0.20906645 -0.2332305 0.048692137
-0.05885077 -0.13928589 -0.114393175 0.14517859 0.20222682 0.121253625 -0.042836796 0.025030857
-0.0067367037 0.0051852525 -0.05981252 0.18116035 0.15722287 0.27166706 0.20257637 -0.019512642
0.11509936 0.06890174 0.24832213 0.19299284 -0.035247054 0.22928871 0.23196964 7.1277675e-05
-0.14425452 0.1248282 0.11745161 0.019346869 0.18086854 0.018879935 -0.07648094 0.062028576
-0.030120136 0.20372844 0.05023668 0.11738884 -0.1409113 -0.09491818 0.19427995 0.0129892
0.12871607 -0.017743967 0.026600208 0.19223571 0.43277586 0.22502604 0.10448822 0.011009866
0.034132533 0.17492788 -0.10164272 0.013466235 -0.092312485 0.005418266 0.1871272 0.048766166
0.07097688 0.058895722 0.19066082 0.1266594 0.15520488 0.21404982 0.15612102 0.2562632
00000000: 8faa 453e bf6c 773d 94df cabc e563 28bb
00000010: 3fb4 413d c7c9 a13e d449 5c3e 7c60 dd3d
00000020: c967 863d 5903 703d 9913 1b3e 6e4f e13d
00000030: ef3e d13d b233 bf3b 0386 123e eacd fd3c
00000040: 7d48 75bd 7428 9ebc 3f76 363e ff3f 83bd
00000050: 05d0 e93d c882 1e3e 696d 85bd 3db9 7a3d
00000060: 7c72 253d 65fe 8d3c 26ce 513d 5508 503e
00000070: 5f06 c1bc d68f bfbd c4dc 5c3e 74c6 133e
00000080: 5378 473e fd2b 433d 3c5e 01bd 1e0b 9d3d
00000090: 3dbd db3e 0a8e 833e bbbb b13e 2fd2 293e
000000a0: 7a26 60bd e67a fcbc b275 5bbb 9f19 083c
000000b0: 9096 32bd f495 f53d 4eeb 6c3d 4d5a 593e
000000c0: f275 d83c 019f f43d 1280 8abd 375e f23d
000000d0: 7578 123e 4fb7 023e cfc6 053d 15b9 803e
000000e0: a940 803c ffdf 693e 3975 c23d 9c7b 2a3d
000000f0: ee54 603e ca20 9ebc 111f 40bd 315e 9cbb
00000100: 7804 023e b475 f3bd db65 1dbe 8218 bdbb
00000110: 5475 283d da64 af3c 4f71 e2bc 1a77 313e
00000120: 6584 31bd 8b86 723c 098e a03d f064 233e
00000130: 6a44 aa3d d807 733e 99cd 22bd ca9e b03d
00000140: f476 d13c e66e 08bd 794a fc3d 746a 8d3c
00000150: a3b2 2f3e 9b94 82bc 77f6 953e 780a b43e
00000160: ec14 6d3e f660 3a3e 498e 5b3e 23fc 823d
00000170: e31d a1bc fa4e a53d 827c 0cbd eb3b b93d
00000180: ac45 1d3e 4133 683e eea1 4b3e b326 453e
00000190: 56ca 90bd 7f9a 94bd abf0 fe3d e5bc 8c3c
000001a0: 388b 103e 5cce f0bd 3f7b 51bd 46d8 f5bd
000001b0: 0cc7 e63d d6aa 8c3d dad9 d73b 48cd 083e
000001c0: 20df c8bd bde2 d3bd 52cd 053e 267f 17bd
000001d0: 3e1e bc3d 4304 8b3d 2c2d 1d3d 5de4 b5bd
000001e0: 4678 3fbd aab3 fb3d 0444 643d 52c3 1abd
000001f0: c130 3b3d 44e6 0fbd 6b85 33bc 40f8 c93c
00000200: d0de c93d f787 0a3e fadb 033e 1fe1 f4bc
00000210: 47b1 3a3c f74f 0bbe 3064 64bc a869 063c
00000220: 073a b9bd fda7 013e 1e61 74bd a940 06be
00000230: 0a17 85bd fd8f c9bc 9706 f1bd 624f b83d
00000240: 065f a63c 7047 aabd baf8 4b3c ef52 fabd
00000250: 78be 363d 4f47 9abb 3cad 4a3d a126 8dbd
00000260: 0fe5 09be 47a5 2b3e 1ada 4abe 67a4 a9bc
00000270: e4e4 5b3e 7036 0a3e c486 96bc 92b0 843e
00000280: 63df 03be 4a78 0cbe b70f 3b39 d9b9 543b
00000290: 947f c23d 8d59 f3bb d99d 633d 10ad 98bd
000002a0: 7460 6f3d 52fc d4bc a94b 6e3d e91c cbbd
000002b0: 91f2 d23c 46ea 27be c116 8f3d d5c0 5a3e
000002c0: ed07 013e 4d4f 553d e6ee b2bd 4816 92bd
000002d0: dd8b 39be 37e6 80bb 029e a9bd ef7f 4dbe
000002e0: 3d0e e43d befe 5cbd 41b6 74bd 3f0d b7bd
000002f0: ef2f 00be 8415 563e fad3 6ebe 6871 473d
00000300: 810d 71bd f6a0 0ebe f846 eabd b2a9 143e
00000310: 8c14 4f3e d253 f83d a375 2fbd 830d cd3c
00000320: 91bf dcbb 0de9 a93b f9fd 74bd 1982 393e
00000330: 08ff 203e f217 8b3e 2e70 4f3e fad8 9fbc
00000340: 37b9 eb3d 5b1c 8d3d 2848 7e3e ea9f 453e
00000350: 375f 10bd a9ca 6a3e 7389 6d3e e97a 9538
00000360: 75b7 13be eda5 ff3d 788a f03d 537d 9e3c
00000370: 9a35 393e 18aa 9a3c 0aa2 9cbd ad11 7e3d
00000380: 81be f6bc 309e 503e fac4 4d3d 8f69 f03d
00000390: 0d4b 10be 7664 c2bd 53f1 463e a7d0 543c
000003a0: 25ce 033e cc5b 91bc aee8 d93c 70d9 443e
000003b0: cc94 dd3e 3a6d 663e ebfd d53d ba62 343c
000003c0: 8ece 0b3d 4b20 333e 0f2a d0bd 7ca1 5c3c
000003d0: 540e bdbd b68b b13b 469e 3f3e 08bf 473d
000003e0: 545c 913d a43c 713d 973c 433e 00b3 013e
000003f0: 07ee 1e3e e02f 5b3e 30de 1f3e ee34 833e
