octagon/media/ai_models/Newest505Model-20240706_183824/model.onnx (onnx, 53441 bytes, 5 tensors)

linear.weight f4 [3, 50]
000000 8c be 1f be f8 25 cc bd d7 24 27 be 9b 3b 12 3e
       -0.15600032 -0.099681795 -0.16322647 0.1428055
000010 2f 63 04 bd f2 51 1a 3d 57 23 e9 3c ec fb f7 bc
       -0.03232115 0.037675805 0.028459234 -0.030271493
000020 84 22 db bd 5d 62 5a 3c 59 c0 68 3b 75 64 c2 bd
       -0.10699943 0.013329116 0.0035515039 -0.09491817
000030 7e 55 e6 bd a3 90 01 3e 8e 48 76 bd e8 ec cf 3d
       -0.11246775 0.12652831 -0.060127787 0.10152608
000040 13 ff 26 3e cf 42 29 3e 4d f2 1d be df 61 c3 bc
       0.1630824 0.16529392 -0.15424462 -0.02385038
000050 d5 84 b3 bd 1c 56 4e 3c 23 46 6e 3c ce d6 e2 bd
       -0.0876557 0.012593772 0.014543089 -0.11076127
000060 e9 d5 2b 3d 28 69 9c bb 12 b7 e8 3d 4b 85 a2 3c
       0.041952047 -0.004773278 0.11363043 0.01983895
000070 ea 2d a9 3d 4d fb f7 3d 82 21 f3 bb 7f b4 de 3b
       0.082607105 0.12108479 -0.007419766 0.006796419
000080 5e 8d cd bd 9e 0a 0e be d7 c0 be 3d fd b4 2a 3d
       -0.10036729 -0.13871238 0.09314125 0.04167651
000090 9c 48 a1 3b 13 2a 0f 3e d8 d8 84 3d 8c b3 0a 3e
       0.004921986 0.13980894 0.06486672 0.13545054
0000a0 03 70 7d bd ab da 61 3d f9 04 20 be 4e 4f 19 be
       -0.0618744 0.05514018 -0.15626897 -0.14971659
0000b0 e2 d9 21 3d 08 77 38 bd b5 54 1a 3e 8e 94 98 bd
       0.03951443 -0.045035392 0.15071376 -0.074502096
0000c0 03 6a 26 be 24 ee 18 be fb af 61 3d d2 06 2f be
       -0.16251378 -0.14934593 0.05509947 -0.17092445
0000d0 5f 0e 3e be 78 26 04 3e bd 10 c8 bd b4 68 48 be
       -0.1856017 0.129053 -0.097688176 -0.19571191
0000e0 5d b6 2b 3e 4c cb 3b 3e 08 70 db 3d be da 21 3e
       0.16768785 0.1833927 0.10714728 0.158061
0000f0 e0 e1 3c be 63 af f5 bd f5 2b ee bd dc d7 77 bd
       -0.1844554 -0.11996343 -0.11629478 -0.060508594
000100 eb 9f e9 3d eb 3c 6e bc b4 29 d3 3d a7 21 68 bc
       0.11407455 -0.014540891 0.103106886 -0.01416818
000110 c3 db 4a 3d 27 30 09 3d 15 1a 1a 3e bf 8d c0 3c
       0.049525987 0.033493187 0.15049012 0.02350509
000120 54 77 c3 3d 10 32 06 bd 79 f0 7c 3d 09 56 20 3d
       0.095442444 -0.032762587 0.06175277 0.03914455
000130 4e ff 38 3e 42 88 fc bd fb ac 97 3d a3 20 04 3d
       0.18066141 -0.123306766 0.0740604 0.032257687
000140 42 bc a3 bd 80 ef 09 be 0f e9 04 be 65 26 52 bd
       -0.07994892 -0.13470268 -0.1297953 -0.051306147
000150 83 34 4d 3b 2f b8 19 bd b0 9b bf bc a7 d2 2a be
       0.0031311817 -0.037529167 -0.023389667 -0.1668192
000160 fc 28 75 3d f2 21 07 3c 32 f0 ed bd 90 bf ef 3c
       0.05985354 0.008247839 -0.11618079 0.029266149
000170 19 a4 e5 3b 22 8f 5a be 73 fb 1e be 6a d2 08 3e
       0.0070080874 -0.21343663 -0.15525608 0.13361517
000180 bf 85 04 3d d9 6b 52 3d a8 79 4c be d4 65 42 bd
       0.032354113 0.051372383 -0.19968283 -0.047460392
000190 a7 e0 01 3d 11 db 0d be 36 15 7c bd d5 ac 9b 3d
       0.031708386 -0.13853098 -0.061543666 0.076013245
0001a0 66 94 d1 bd f1 43 54 3d 6c 43 e5 3d 55 a2 f1 3d
       -0.10233383 0.051822606 0.111945 0.117985405
0001b0 39 d5 dc bc 1b 3b 97 3d a0 0c cf 39 53 e4 6d bd
       -0.026957141 0.0738432 0.00039491523 -0.058079075
0001c0 5a b4 35 bd 10 f3 52 3e 9a 2b d2 3d 12 3d 8e bb
       -0.04436145 0.20600533 0.102622226 -0.0043407762
0001d0 dc 2f 63 bd 33 8b bf 3d c5 b6 3b be 53 45 57 be
       -0.055465564 0.09352722 -0.1833144 -0.21022539
0001e0 71 97 2a 3e a4 96 31 be 54 01 e5 3d 80 9a 60 be
       0.16659333 -0.17342621 0.11181894 -0.21933937
0001f0 f8 5a a1 bd 2d 89 23 3e 87 d3 a9 3d 5e f9 22 bd
       -0.07878679 0.15970297 0.08292299 -0.039788596
000200 40 f4 98 3c c6 69 3b bd 60 f3 1f be e0 aa 3c be
       0.018671155 -0.04575517 -0.15620184 -0.18424559
000210 82 2d 15 be 28 d4 54 be 26 1f 42 3e 5f cf 23 be
       -0.14568141 -0.20784056 0.18957195 -0.15997075
000220 a2 65 72 bc 32 d7 f1 bd 78 ed 8f bd 95 f9 39 3e
       -0.014794739 -0.118086234 -0.070277154 0.18161614
000230 c0 03 30 bd f6 e1 22 3e c5 2b db bb 85 d2 3c be
       -0.042972326 0.1590651 -0.0066885673 -0.18439682
000240 24 e2 fe 3c 67 99 4e 3e b5 fa 02 3e 3f 87 4c 3e
       0.031113692 0.20175706 0.1279095 0.19973467
000250 4e 1a 18 be af 3e 25 be
       -0.14853784 -0.16137193

linear.bias f4 [3]
000000 63 08 b1 bd 03 2f fb 3c f4 43 35 3d
       -0.08644178 0.030662065 0.04425426

onnx::LSTM_113 f4 [1, 200, 10]
000000 f4 19 ec 3d 88 b7 ec 3d 55 8f 76 bd 84 64 04 3e
       0.11528388 0.11558443 -0.060195286 0.12928969
000010 bd e9 35 bd d3 0a 69 3c 12 82 8e bd 91 6c b4 3d
       -0.044412363 0.014223772 -0.06958403 0.0880977
000020 d3 d1 04 3e ee 27 fb bd 8a 7c 38 3e 00 72 b0 3d
       0.12970667 -0.12263475 0.18016258 0.08615494
000030 da c8 47 3e 39 75 9a 3d ec 0c 1e 3e 0b 73 8b 3d
       0.19510213 0.0754189 0.15434617 0.06809052
000040 15 f7 34 3e ef e3 a7 3d 51 f0 a1 bb 40 c5 fd 3d
       0.1767238 0.08197772 -0.004941978 0.12391138
000050 0c cc d4 bc 56 1a d9 3c 1a 0f 6d 3c ef 9d 09 3e
       -0.025976203 0.026501816 0.0144689325 0.13439153
000060 bf 26 45 bd 70 4a a2 b9 98 c3 fe 3b de 23 36 bd
       -0.048132654 -0.00030954508 0.0077747814 -0.0444678
000070 d3 d9 5c 3d 91 27 94 bd 3a 4c 2f 3e e2 38 92 bd
       0.05391867 -0.07234109 0.17118922 -0.07139756
000080 28 09 3f 3e 0e db 8e 3d bd 30 b6 3c 0d bb 20 3e
       0.18655837 0.06975375 0.022240037 0.15696354
000090 5e 98 98 3d 51 3f 23 3e b6 52 78 3d 4b 06 f2 3c
       0.07450937 0.15942122 0.060625754 0.029544016
0000a0 41 8d b1 3d 88 60 d1 3c 9e 62 12 3e dc c0 3f 3e
       0.0866952 0.025558725 0.14295432 0.18725914
0000b0 e8 b6 21 3e ed d6 83 3c 51 a4 12 3e fd 92 a5 3d
       0.1579243 0.016093696 0.14320494 0.080846764
0000c0 8e 6c 02 3e 00 67 9b bb e5 47 d5 bd 24 61 81 bd
       0.12736723 -0.004742503 -0.104141034 -0.06317356
0000d0 9c bd 1e bd 1e af d5 3d 08 a9 e0 3d cf 5a 02 3e
       -0.038755044 0.104337916 0.1096974 0.12729953
0000e0 2c 91 c7 3d cf 7d 22 3d 02 7a 1c 3e 3f 9e 23 bd
       0.09744486 0.03967076 0.15280917 -0.039945837
0000f0 bf 26 5a 3d 91 9b 22 bd e6 9a f6 3d ce 56 b3 3b
       0.053259607 -0.03969914 0.12041263 0.0054729944
000100 16 f1 e6 3d ca c3 2a 3d 5c e0 2e 3e d0 73 14 bd
       0.11276452 0.041690625 0.17077774 -0.03624326
000110 82 92 16 bd 7b 51 50 bc ee f7 22 3e 37 aa d2 3d
       -0.036760814 -0.012714739 0.1591489 0.10286372
000120 e6 77 70 3e 1c 14 84 bd 4d ad 7e bd 05 84 f1 bc
       0.23483238 -0.06449148 -0.06217699 -0.029481897
000130 13 99 33 bd 15 2c cc 3d 93 95 be 3d c8 d9 4f 3e
       -0.043847155 0.099693455 0.09305873 0.2029792
000140 fb 89 ac bd b8 14 bc bd c7 11 99 3d b9 26 51 bd
       -0.08424755 -0.09183639 0.07474094 -0.05106232
000150 c8 e5 9e 3d c1 90 2c bd 6d 3d 8b 3d cf 0f 00 be
       0.07758671 -0.042130236 0.067988254 -0.1250603
000160 e1 39 b1 bd a3 9f 1c 3d db 69 92 3d 88 dd a8 3c
       -0.08653618 0.03823818 0.071490966 0.020613447
000170 c9 76 2e 3e ad be 19 3e 0d b6 f0 bc 49 5d a8 b9
       0.170375 0.15014143 -0.029383684 -0.0003211296
000180 bc 61 3d 3e f9 60 7a 3a 19 b2 be ba 94 71 6c bd
       0.18494314 0.0009551193 -0.0014548927 -0.057725504
000190 6e e1 29 bd 36 a6 b2 3d 9b 1b 87 3d 43 51 63 bd
       -0.041474752 0.087231085 0.06597062 -0.05549742
0001a0 06 73 9c 3d c4 d3 af bc 6e 83 87 bd 4c 95 03 bd
       0.076391265 -0.021463282 -0.06616865 -0.032124802
0001b0 40 c8 9f bd ef 79 37 bc d8 d2 30 3e 68 3a 5d 3d
       -0.078018665 -0.011198505 0.1726793 0.05401078
0001c0 8b 62 f1 3d 3c 9b dd bd 6f e1 01 bd be fd 7e 3c
       0.11786374 -0.10820624 -0.03170913 0.015563427
0001d0 98 45 83 3d 52 c3 bb bd e1 c1 e6 bc e2 17 98 bc
       0.06409758 -0.09168114 -0.02816862 -0.018566076
0001e0 9b 38 18 3d 48 91 d0 bc 9a 96 92 3d d4 58 94 bd
       0.03716336 -0.0254599 0.07157631 -0.07243505
0001f0 fa 49 00 bd 50 c7 76 bc 84 92 17 bb 92 2b 97 bd
       -0.03132055 -0.015062168 -0.0023128102 -0.07381357
000200 a5 24 20 3e 86 fc 2e 3d ef 56 27 3e d2 16 e8 3d
       0.15638979 0.042721294 0.16341756 0.11332478
000210 8f 77 a7 bc 62 34 29 3e b7 77 fb 3c d0 69 93 3c
       -0.020442752 0.16523889 0.030696733 0.017994791
000220 eb fc 8e bd 33 00 cb bd 6a d2 a7 3d 91 9f 54 3d
       -0.06981834 -0.099121474 0.0819443 0.051909987
000230 2a 81 3e 3d a8 36 02 be 2c 15 02 3e 8b 41 ed bd
       0.0465099 -0.12716162 0.12703389 -0.11584767
000240 74 2e 4a bc a1 e2 2b 3d 72 09 99 3d fc 82 df 3d
       -0.012340177 0.041964177 0.07472505 0.10913655
000250 db 8a fd 3d 40 82 c3 bd 9b 20 24 3d 42 94 a3 bd
       0.1238 -0.095463276 0.040070157 -0.07987262
000260 cb 2e 3d bd ef e9 fd bd 09 2f e3 3d 16 6a fc bd
       -0.046187203 -0.12398135 0.110929556 -0.12324922
000270 c3 66 92 3d 5c f9 50 3d 1b 9d 41 3d 18 c2 cb bd
       0.071485065 0.051019058 0.047268968 -0.0994913
000280 56 a8 20 3e 43 7b bc 3b 3d bc 92 3c 03 1c 1a be
       0.15689215 0.0057519986 0.017912025 -0.15049748
000290 a9 0b a0 3d 41 78 aa bb 00 fb 17 bd c2 9f 17 3e
       0.07814724 -0.0052023237 -0.037104607 0.14807037
0002a0 ab 14 6e 3d eb bb 90 bd b2 9e 20 bd da 14 c0 3c
       0.05812518 -0.070670925 -0.039213844 0.023447443
0002b0 d4 54 0a 3e 2f 85 d7 bb d3 40 28 bd ae 26 0d bc
       0.13508922 -0.006577156 -0.041077446 -0.008615179
0002c0 8b 01 97 bd 42 1a a4 3d 1e 80 0e 3e 81 c9 ba bd
       -0.07373341 0.08012821 0.1391606 -0.09120465
0002d0 15 d3 a1 3d 28 81 0d 3e e2 d0 f1 3d 20 24 56 3c
       0.07901589 0.138188 0.11807419 0.013070136
0002e0 90 f1 11 3e 5a 83 14 3e fe 08 d4 3d 48 51 a5 3c
       0.14252305 0.14503232 0.103532776 0.02018036
0002f0 37 ad f8 3b 78 e2 c2 3d 05 3b 0b 3c 62 67 50 3c
       0.007589008 0.09515852 0.008497958 0.012719961
000300 6b 59 33 3e cb a5 32 3e b8 f5 51 3d d6 dc 11 3d
       0.17514579 0.17446057 0.051259726 0.035610996
000310 e2 35 38 3d 35 50 d4 3c 58 05 8c 3d 50 de ed 3d
       0.04497326 0.025917152 0.06836957 0.11614668
000320 5f 9f 08 be 1e f6 b7 bc a3 46 3f 3e 82 5a a8 3d
       -0.13342045 -0.022456225 0.1867929 0.08220388
000330 de 8a ff 3c 79 c7 34 bd 23 8e 9d bd 50 1f 03 be
       0.031194147 -0.044135544 -0.07693126 -0.12804914
000340 62 64 42 bd dd 62 ca 3d 8b 8e bf 3d 8f 87 e9 3d
       -0.047459014 0.09882138 0.0935336 0.11402809
000350 f8 f0 45 bd 20 55 1d bd 91 ba c0 3c 4d cd 3e 3e
       -0.04832551 -0.03841126 0.023526462 0.18633004
000360 d8 cb 16 3d 92 dd ed bc 29 62 87 3d 97 a4 cd 3b
       0.036815494 -0.029036317 0.066105194 0.006275724
000370 f0 3c e7 bd e2 9d 99 3d 85 07 aa bd 2a 8b 66 bd
       -0.1129092 0.07500817 -0.083022155 -0.05628506
000380 fd eb 24 be ba ca 96 3d ca 71 af 3d 39 c4 e4 3c
       -0.16105647 0.07362886 0.085666254 0.027925598
000390 6b 4f fa bd 6b ab 23 be cc e1 64 bd a0 08 34 3e
       -0.12222179 -0.1598336 -0.0558794 0.17581415
0003a0 90 2e 26 3e 8b d8 3e 3e 69 cf 25 3e 66 e3 00 3e
       0.162287 0.18637292 0.16192402 0.12586746
0003b0 4e ea 8b 3d c3 c7 38 bd 71 83 70 bd 38 e3 23 bd
       0.068317994 -0.045112383 -0.058719102 -0.040011615
0003c0 d1 5a c4 3c a7 49 d4 bd 45 dc 60 bd ea ec eb bd
       0.023969086 -0.103656106 -0.054897565 -0.11519797
0003d0 22 c3 5e bd ff e6 03 be 58 6f ff bd 0f 89 3f 3c
       -0.054385312 -0.12881087 -0.12472409 0.011690392
0003e0 29 34 9e bd eb 45 72 3d f5 f6 3b 3a 21 85 e5 bc
       -0.077247925 0.05914871 0.00071702834 -0.028017582
0003f0 c1 09 84 3d 07 e5 a5 3b e3 b8 06 3d bf e3 64 bd
       0.06447173 0.0050627026 0.032891165 -0.055881258

onnx::LSTM_114 f4 [1, 200, 50]
000000 57 89 f5 bc 50 c9 af bd 0b 49 83 3d 74 4b 71 bd
       -0.029972715 -0.08583319 0.06410416 -0.05890985
000010 5b bb ef bb 95 a2 cb bd 66 b2 69 bc 1a 9c a4 3c
       -0.0073160357 -0.099431194 -0.014263725 0.020093966
000020 08 93 bc bb 9b 70 58 bd d7 16 2c 3d da 15 16 bd
       -0.005754832 -0.052841764 0.04201397 -0.036641933
000030 32 92 a0 bd 53 95 d5 bd d9 68 f5 bc d7 cd 08 be
       -0.078403845 -0.10428872 -0.029957222 -0.13359772
000040 44 66 f0 3d 60 5d 8a bd 83 0e 70 bd 8a 2f 56 3c
       0.117382556 -0.06756091 -0.05860759 0.013072858
000050 f8 29 16 3d e0 7a 5a bc 86 b1 c6 3d 1b d7 a8 bd
       0.03666112 -0.01333496 0.09701829 -0.08244153
000060 aa 98 4f 3d d0 38 a7 b9 3d 9b eb bd 5d 58 60 bd
       0.0506827 -0.0003189505 -0.11504219 -0.05477177
000070 2b 6a 13 3d 96 53 dd 3c d6 99 d2 3d d6 c2 c1 3d
       0.03598992 0.027017396 0.10283248 0.0946099
000080 a9 f8 9d bd a6 5c 77 bd ad a7 f5 bc 60 7f cf bd
       -0.07713444 -0.06039109 -0.02998718 -0.10131717
000090 14 65 1c bd 3d 02 ed bd 55 51 5c 3d 5c ee cc 3d
       -0.038182333 -0.115726925 0.0537885 0.10006401
0000a0 9f 74 37 3c 58 57 cf bd 00 57 db bd 94 81 61 bd
       0.011197238 -0.101240814 -0.10709953 -0.055055216
0000b0 f4 7a 28 3d dd 11 62 3b 22 a5 d2 3c 62 7c 08 3e
       0.041132882 0.003449551 0.025713507 0.13328698
0000c0 4c 84 86 3d d8 1b f9 3c 0d 65 ea bc 76 02 89 3d
       0.065682024 0.030408785 -0.028612638 0.066899225
0000d0 e1 ea 53 3d 47 59 02 be 6d 16 ab bd 03 8c 9b 3b
       0.05173767 -0.12729369 -0.08353887 0.0047469153
0000e0 e7 cb 5b 3d 03 e8 8c 3d 3f 69 ac bd 6b ac 0f be
       0.053661253 0.0688019 -0.084185116 -0.14030616
0000f0 be 65 f1 bb 77 70 84 bc 17 17 28 3d fd 4c 1f bd
       -0.007366865 -0.016166909 0.041037645 -0.03889178
000100 f1 6d dd 3d 65 9a 1a 3c 8a 80 d3 3d 97 ac c9 bd
       0.10811985 0.009436225 0.10327251 -0.09847372
000110 c1 b9 67 3d 92 0b 8a 3c c2 db 90 bd 7b 95 8f 3d
       0.056573633 0.01685122 -0.070731655 0.07010933
000120 51 80 0e be 36 28 ea 3d fa b9 3a 3c 8d b7 5f 3c
       -0.13916136 0.11433451 0.011396879 0.013654602
000130 46 f0 85 3d f3 57 40 3c 31 4d 78 3d 6e 44 b8 3d
       0.06539969 0.011739719 0.06062049 0.08997427
000140 80 0b e2 bd be 9b bf 3d d8 79 ad bc f2 b4 06 bd
       -0.1103735 0.09355877 -0.021176264 -0.032887407
000150 81 30 e9 3c 0c 89 e2 3d a3 72 9d bd fa 30 c3 bd
       0.028465511 0.11061296 -0.07687881 -0.09530826
000160 40 bf b3 3d c6 07 88 bd 50 7e 3a 3d 49 ae aa bc
       0.087767124 -0.06642108 0.045530617 -0.020835059
000170 8c 71 1f 3d 91 05 dd 3d e0 c8 92 bd 1f 8c 8c bd
       0.038926646 0.10792077 -0.0716722 -0.068626635
000180 55 19 8e 3d 68 ba fd 3b 93 02 7f bc 8d 68 fe bd
       0.069384255 0.0077431686 -0.015564579 -0.12422285
000190 6a 64 f5 3d 4e 7f af bb b0 62 d5 bc fb c7 6d bd
       0.11982043 -0.005355752 -0.026048034 -0.058052044
0001a0 fc 9e e4 bc 44 c5 8c 3d 83 03 55 bb e4 b1 f7 3d
       -0.02790784 0.06873563 -0.0032503314 0.12094477
0001b0 2c c6 05 bc 02 33 a6 bc 8f 7b a3 3d d8 d1 6f bb
       -0.008164924 -0.020287994 0.07982551 -0.0036593582
0001c0 b2 3b e7 bc d0 9a 41 3d 75 69 e4 3d f5 8d 10 3d
       -0.028226707 0.04726678 0.11152927 0.03529163
0001d0 e0 ac c9 3d 23 b1 bb 3d 62 d0 23 3d 1a 67 49 3d
       0.098474264 0.091646455 0.03999365 0.04917059
0001e0 2c eb 3a 3d fd 56 70 3c 4b 66 f6 3d 5e af 05 3e
       0.045634434 0.014669177 0.120312296 0.13055179
0001f0 ed 35 4e 3d 88 6b e7 bb 38 d7 01 3e fc 6c e1 bd
       0.050344396 -0.0070623793 0.12679756 -0.11007115
000200 f0 d0 d4 3d 32 74 99 3d 84 fb b9 3d 25 08 32 bc
       0.10391414 0.074928656 0.09081176 -0.0108662
000210 d2 17 d8 bd e2 9a ce 3d 18 49 7d bd 3c 69 18 3d
       -0.10551418 0.10088135 -0.061837286 0.037209734
000220 c9 16 a4 3d 72 55 07 be b5 c4 19 3c e5 c4 4d bd
       0.080121584 -0.13216189 0.0093852775 -0.0502366
000230 2e 91 cd 3d 90 68 b8 bd eb da af 3d ec 9a b4 3d
       0.100374565 -0.09004319 0.08586677 0.088186115
000240 31 cb 9f 3d 4f 06 0b 3e b0 75 af 3c 0d 42 03 be
       0.078024276 0.13576625 0.021418422 -0.12818165
000250 e3 c1 ce 3d 45 1e 54 3c 65 ed 37 3b 1d f3 09 be
       0.10095575 0.01294667 0.0028065082 -0.13471647
000260 57 31 02 bd d9 93 8c bd 79 d5 0d 3e c1 39 ce 3d
       -0.031785335 -0.06864137 0.13850965 0.100696094
000270 b0 0f d8 3d 92 59 c6 3d e0 88 b3 bd 7f c6 78 bd
       0.10549867 0.09685053 -0.08766341 -0.060736176
000280 be b1 62 bd 3f 37 68 bd 42 75 e1 3d 62 d0 44 3d
       -0.05534529 -0.05669331 0.11008693 0.04805029
000290 d1 18 e8 3d 28 c7 d8 bb ab 17 01 be ad 0e 28 bd
       0.11332858 -0.006615538 -0.12606685 -0.04102962
0002a0 14 8d cb 3d 35 54 b0 3d af 52 33 3d df e9 29 bd
       0.09939018 0.08609811 0.043780025 -0.041482802
0002b0 a5 2a 07 be 5e a0 9b bd 06 02 97 3d 58 a6 69 bd
       -0.13199861 -0.07598947 0.07373433 -0.057043403
0002c0 aa 8a 8a 3d 8e 29 1e 3d b6 7c 5e bd 6e 68 b0 3d
       0.06764729 0.03861385 -0.054318152 0.086136684
0002d0 be 22 3a bd 01 f5 99 bb fe a5 5c bd 2b 5e 09 be
       -0.04544329 -0.004698396 -0.05386924 -0.13414828
0002e0 5c cc ba 3c 8f 63 27 3d e4 d2 91 bd 56 ac b1 3d
       0.022802524 0.04086643 -0.07120302 0.086754486
0002f0 53 e8 01 be 47 99 0b be e8 e3 b2 bd 1d 32 48 bd
       -0.12686281 -0.1363269 -0.08734876 -0.048875917
000300 d9 a9 80 bc d6 e1 df bc 2a 2f 84 3d fe 2f fe bd
       -0.01570599 -0.027329367 0.06454308 -0.124114975
000310 fd 96 aa 3c d8 80 20 3b 26 00 19 3d 4b f5 0f 3e
       0.02082395 0.002449086 0.037353657 0.14058416
000320 c0 40 b2 3d b8 5e a0 bd bd 56 ed bd 67 3d 0c bd
       0.08703756 -0.07830566 -0.1158881 -0.034238245
000330 65 49 91 bd d4 56 4a 3d 14 ec a9 3a fe f4 e8 3d
       -0.07094077 0.049399212 0.0012964034 0.113748536
000340 a3 89 63 3d a5 04 d5 bc 0b 46 9f 3b a0 b9 0a 3d
       0.055551182 -0.026003191 0.0048606447 0.033868432
000350 0c c2 8f bc 97 b6 e9 3d 68 76 e2 bd f7 2a 8d 3d
       -0.017548583 0.114117794 -0.110577404 0.068929605
000360 9d 9f b8 bd 85 bd fd bd 4e d7 ed bc 7b 23 8d 3d
       -0.09014819 -0.123896636 -0.02903333 0.06891533
000370 67 a4 cc 3d 85 5c 11 3d 96 42 48 bc 68 e4 01 bc
       0.09992295 0.035488624 -0.012222907 -0.007927991
000380 6c d2 6a bd 05 ed 4f bc 0d 18 20 bc 12 77 f6 3d
       -0.05732958 -0.012690787 -0.009771359 0.120344296
000390 3c 81 a9 3d 06 c5 e7 bd b4 5b 19 3a ad 24 b2 bd
       0.082766026 -0.11316876 0.00058501516 -0.086984016
0003a0 b4 e7 b7 bc 7f 30 e6 bd e8 95 16 3d b5 d8 d0 bd
       -0.022449352 -0.11239719 0.036764055 -0.101975836
0003b0 02 f7 0e 3e e3 ba da 3d bb 5e c7 bd ab 56 08 be
       0.13961414 0.10680177 -0.09734865 -0.13314311
0003c0 c7 cf b4 3b b2 b3 21 bd 50 0d 2a 3d 26 0e c4 bd
       0.005517933 -0.03947801 0.041516602 -0.09573011
0003d0 a3 1d 6d 3d 26 2b fa bd c9 db 98 bd 6f 42 98 bd
       0.057889592 -0.12215261 -0.07463796 -0.07434546
0003e0 61 26 8c 3d 0d a7 72 bb fc 2b 0b be fe 69 a5 bd
       0.06843258 -0.003702584 -0.13590997 -0.08076857
0003f0 d6 08 86 bd 35 5d 06 be 69 58 94 3c b9 69 4e 3d
       -0.06544654 -0.13121493 0.018108563 0.050393794

onnx::LSTM_115 f4 [1, 400]
000000 e7 04 dc 3d d1 cd 46 3d bf 87 0a bd 20 04 bf bc
       0.107431225 0.048536126 -0.033820864 -0.023317397
000010 88 5b 1e 3d 96 16 6e 3d 45 f9 54 3e c4 60 f3 3d
       0.03866151 0.05812701 0.20798214 0.11883691
000020 13 b7 93 bd 23 95 8f 3d cc 87 3f 3d 58 37 d3 3d
       -0.07212653 0.070108674 0.046760365 0.1031329
000030 bf b6 01 3e 90 b5 43 3c 49 ec 6a 3d 6a 0a 1f 3d
       0.12667368 0.011945143 0.057354245 0.03882829
000040 4d d5 cb bc a5 4b 64 bd 12 f8 36 3e a6 f7 59 bd
       -0.024881983 -0.055736203 0.17868069 -0.05321469
000050 9a ab 04 3e 34 d9 c5 3d 40 cd 81 bd 63 92 30 3d
       0.12956086 0.09660569 -0.063379765 0.043108355
000060 4f 78 81 ba c9 4b 46 3c 0f 5d 87 3d b2 43 b9 3d
       -0.0009877774 0.0121030295 0.066095464 0.09046115
000070 5e d6 0a bd 5b eb f7 bd bf e0 4a 3e 40 43 10 3e
       -0.033895843 -0.12105437 0.19812296 0.14088154
000080 4e ce 43 3e 87 4d 42 3d 7c 1e 93 bd 3c f4 7c 3d
       0.19121668 0.047437217 -0.07183549 0.061756358
000090 2c b5 bd 3d 9e 36 e5 3d 37 a8 0b 3e 96 7a 1b 3e
       0.092630714 0.11192058 0.13638388 0.15183482
0000a0 6a e7 69 bd 8b 45 0c bd 46 4e d2 bc 3a c3 c1 bc
       -0.05710546 -0.03424601 -0.02567209 -0.023652662
0000b0 9b 98 95 bd 75 99 d9 3d 42 73 7a 3d 92 46 50 3e
       -0.07304498 0.10624973 0.061145075 0.2033942
0000c0 73 9a 5d 3b a5 84 07 3e a4 d7 24 be 44 87 ce 3d
       0.0033813983 0.13234194 -0.16097885 0.100843936
0000d0 97 c1 09 3e 38 e2 d2 3d bb 43 da 3c d4 2a 96 ba
       0.13452755 0.10297054 0.026643625 -0.0011456856
0000e0 1f 2a b7 3b 11 13 6f 3e d2 41 7d bd e4 89 71 3d
       0.005589738 0.23347117 -0.06183035 0.058969393
0000f0 f7 c8 ba 3d d1 12 15 bd 77 99 c0 bc 42 d1 ad ba
       0.09120362 -0.036394898 -0.023510678 -0.0013261216
000100 e0 d4 28 3d b5 f4 ea bd ab fe ff bd f8 e8 1a bd
       0.04121864 -0.114724554 -0.12499746 -0.037819833
000110 f6 01 1a 3d da df 29 3d 9d a1 c2 bc d8 75 eb 3d
       0.037599526 0.041473247 -0.023758704 0.11497086
000120 69 56 2d bd ea 05 ae bb 79 db 0b 3d c5 55 03 3e
       -0.042318735 -0.0053107636 0.034144852 0.12825687
000130 69 f6 c2 3d ab cc fe 3d 2f 57 4a bd 73 49 7f 3d
       0.09519655 0.12441381 -0.04939955 0.062325906
000140 32 ff 88 3c c6 8f a3 bc f7 3b e3 3d a0 f0 8f 3c
       0.01672325 -0.019966017 0.11095422 0.017570794
000150 c6 6e 03 3e c6 95 d1 bc c6 b3 60 bd 36 16 58 3e
       0.12835225 -0.025584113 -0.054858945 0.21102223
000160 ff a3 64 3c 6a d2 27 3e 1c 42 58 3e 4e 89 86 3d
       0.013955115 0.1638886 0.21118969 0.065691575
000170 ff 40 2d bd d2 7c 54 3d d6 16 61 bd a3 4b af 3d
       -0.042298313 0.05187685 -0.05495342 0.085593484
000180 07 81 20 3e 52 7b 5c 3e 24 45 37 3e ba bb 50 3e
       0.1567422 0.21531418 0.17897469 0.20384112
000190 56 ca 90 bd 7f 9a 94 bd ab f0 fe 3d e5 bc 8c 3c
       -0.070698425 -0.0725603 0.124482475 0.017179916
0001a0 38 8b 10 3e 5c ce f0 bd 3f 7b 51 bd 46 d8 f5 bd
       0.14115608 -0.1175811 -0.051142927 -0.120041415
0001b0 0c c7 e6 3d d6 aa 8c 3d da d9 d7 3b 48 cd 08 3e
       0.11268434 0.06868522 0.006587249 0.13359559
0001c0 20 df c8 bd bd e2 d3 bd 52 cd 05 3e 26 7f 17 bd
       -0.09808183 -0.10345981 0.13066605 -0.036986493
0001d0 3e 1e bc 3d 43 04 8b 3d 2c 2d 1d 3d 5d e4 b5 bd
       0.09185456 0.06787922 0.038373157 -0.088814475
0001e0 46 78 3f bd aa b3 fb 3d 04 44 64 3d 52 c3 1a bd
       -0.04674556 0.122901276 0.055728927 -0.03778393
0001f0 c1 30 3b 3d 44 e6 0f bd 6b 85 33 bc 40 f8 c9 3c
       0.045700792 -0.035131708 -0.010957102 0.024654508
000200 d0 de c9 3d f7 87 0a 3e fa db 03 3e 1f e1 f4 bc
       0.09856951 0.13528429 0.12876883 -0.029892502
000210 47 b1 3a 3c f7 4f 0b be 30 64 64 bc a8 69 06 3c
       0.011394805 -0.13604723 -0.013939902 0.008203901
000220 07 3a b9 bd fd a7 01 3e 1e 61 74 bd a9 40 06 be
       -0.09044271 0.12661739 -0.05966293 -0.13110603
000230 0a 17 85 bd fd 8f c9 bc 97 06 f1 bd 62 4f b8 3d
       -0.06498535 -0.024604792 -0.11768835 0.08999516
000240 06 5f a6 3c 70 47 aa bd ba f8 4b 3c ef 52 fa bd
       0.020308983 -0.08314407 0.012449438 -0.122228496
000250 78 be 36 3d 4f 47 9a bb 36 92 f2 3c 04 90 69 bd
       0.04461524 -0.0047082077 0.029610734 -0.05702211
000260 92 5d 01 be 53 18 24 3e 3c 52 38 be f2 f3 97 bc
       -0.1263335 0.16024904 -0.1800012 -0.01854894
000270 4f dc 3c 3e 44 09 d5 3d 0f 7d 91 bd cb b6 5b 3e
       0.18443416 0.10402158 -0.07103931 0.21456449
000280 db f3 0a be 9e 19 05 be 20 ad 65 3c 31 60 32 bc
       -0.13569586 -0.12998053 0.014018327 -0.010887192
000290 a3 35 7b 3d bf c6 a0 3c 6a ec 96 3d 12 91 0f bd
       0.06133045 0.01962602 0.07369311 -0.03505046
0002a0 f4 c3 88 3d be e4 cb 3c aa cb 56 3c d5 91 9a bd
       0.06678 0.024889346 0.013110081 -0.075473465
0002b0 2a a9 0b 3b 6a f6 15 be d5 b3 9f 3d a9 7a 3e 3e
       0.0021310546 -0.14644781 0.07797972 0.18601479
0002c0 66 84 d5 3d ab fa 9e 3d bd 82 c0 bd 8b a5 ef bc
       0.104256436 0.07762655 -0.09399936 -0.029253742
0002d0 b7 64 14 be 40 a5 4e 3c 2d 2c 62 bd 25 8e 39 be
       -0.14491545 0.012612641 -0.05521791 -0.1812063
0002e0 a8 50 99 3d d3 91 d5 bc bc 1f 13 bd 7d 51 9a bd
       0.07486087 -0.026070511 -0.035918936 -0.07535074
0002f0 9b a0 ca bd b7 92 43 3e a7 0d 5a be 71 00 31 3c
       -0.09893914 0.19098936 -0.2129427 0.010803328
000300 0a a7 bf bd 4b 03 02 be b0 8a c7 bd a1 fd ef 3d
       -0.09358032 -0.12696569 -0.097432494 0.11718298
000310 12 7f 46 3e c1 b2 ad 3d 8e e6 ff bc 13 ad 1e 3d
       0.19384411 0.0848136 -0.031237867 0.038739275
000320 36 1c bd bd 92 0d db bb 1a 0b 8d bd 27 43 24 3e
       -0.092338964 -0.0066849673 -0.06886883 0.16041242
000330 dd 28 18 3e 1d 21 62 3c a3 1f 48 3e ae ae 0f bc
       0.14859338 0.01380184 0.19543318 -0.008769674
000340 a7 96 b9 bc c2 af a4 3d 86 16 13 3e e4 93 3e 3e
       -0.022654844 0.08041336 0.14364061 0.18611103
000350 4f 09 30 bc 69 0c 71 3e 76 be 15 3e d7 b8 01 3c
       -0.010744407 0.2353989 0.14623436 0.007917604
000360 fd bf df bd 46 0a b5 3d 0d 8e f1 3d 3c 8e f7 3c
       -0.10925291 0.0883985 0.11794672 0.03021919
000370 3b f9 48 3e c1 03 21 bd e7 01 99 bd d1 ea 33 3d
       0.19626324 -0.03931022 -0.07471066 0.04392511
000380 cd 6e 92 bd 19 43 4b 3e 78 58 85 3d 25 c9 99 3b
       -0.0715004 0.19849814 0.06511015 0.0046931677
000390 d2 df 1a be 05 c0 fa bd 4a f5 34 3e 49 9c 1c 3c
       -0.15124443 -0.12243656 0.17671695 0.009558746
0003a0 12 24 00 3e f9 18 93 bc 3d aa 5f bc f0 90 35 3e
       0.1251376 -0.017956244 -0.013651428 0.1773107
0003b0 61 13 c5 3d d7 d8 a3 3d 8b a0 d9 bd 35 5d 44 bb
       0.09622837 0.08000343 -0.10626324 -0.0029962782
0003c0 7f 0d 02 3d 2b 9e 2f 3e fd e1 fd bd 4e 7f 97 bc
       0.031751152 0.1715018 -0.123966195 -0.01849332
0003d0 a9 5b f9 bd b1 1e 07 bc 43 00 43 3e e9 6f 23 3d
       -0.12175686 -0.0082470635 0.19043069 0.039901648
0003e0 54 57 44 3d a5 08 93 3d f2 49 c7 3d 14 8f df 3d
       0.047934845 0.07179383 0.09730901 0.10915962
0003f0 1e 37 16 3e b8 e9 41 3e f7 b4 19 3e c8 d3 72 3b
       0.14669463 0.18936813 0.15010439 0.00370525
